DQN/weights-and-plot/final_weights_300.pth (torch, 75500 bytes, 6 tensors)

FC.0.weight f4 [128, 8]
0.13363892 -2.7564816 -0.01268638 -0.6982372 -0.12903753 -0.15459405 0.85637265 -0.33171213
0.23489697 -2.9798903 -0.671077 -0.5719581 0.31025112 0.07660127 0.29792562 0.73746634
0.68536216 0.23004632 1.1948743 0.43320364 -0.6631609 0.29762563 -0.26629114 -0.4027331
-0.6404199 -3.3836997 -0.70922005 -0.18133135 -0.26387945 0.4459402 0.8639383 0.5455679
-0.15189001 -0.17211363 -0.48454282 -0.076009355 -1.204085 -0.7359305 0.92936707 0.15997136
-0.10902631 -3.640842 0.49044254 -0.5552581 0.09091973 0.111266114 0.3707758 0.21583207
-0.26277977 -0.13675562 0.5953796 -0.9746785 -0.99669117 0.47226226 0.33751646 -0.11613956
-0.2260603 0.124289654 -1.2395157 -0.94813436 0.42282438 0.021315254 -0.40922827 -0.059686296
0.51548713 0.3916697 -0.60113084 0.4317995 -0.44265854 0.6702627 0.033448864 0.38555112
0.34602708 0.6934558 0.9298511 -0.73448104 0.8550688 -0.19451852 0.9003545 0.04597517
-0.011944844 0.81997645 0.064900294 0.32693914 0.35375965 -0.512881 0.51560754 -0.64882874
0.60038334 -0.039532304 0.71780103 -0.37673873 -0.530685 -0.027042838 -0.6538367 -0.902614
-0.803987 0.5553471 0.06948367 -0.030731732 -0.8911758 -0.8726663 0.15516572 0.0026351355
-0.6277142 -1.6778566 0.45550174 -0.661976 0.122175746 0.72462106 0.55127066 -0.61462474
-0.13765158 0.17309417 -1.0402352 -0.604018 0.8753673 0.74907476 -0.8181758 0.68288445
0.617165 -0.31044748 0.93566924 0.17989978 0.7821131 0.0665945 1.0719473 0.2684756
0.95742136 -1.1763924 -0.4674168 -0.82109225 -0.01264903 0.70785356 -0.9146367 0.9876306
0.054089993 -1.6083869 0.4413199 -0.11688466 0.7014663 0.001864662 -0.81028557 -0.52204823
-1.1059942 -1.4178753 -0.2412631 0.5098453 -0.053870652 1.2007277 -0.60903215 0.7546062
0.032956637 0.58212066 0.5037552 0.6126484 -0.16469331 0.5229611 0.5664345 0.6159697
-0.17949754 0.38747656 -0.09575495 -0.5376642 -0.22447819 -0.8566208 0.7307003 -0.01154935
-0.41628304 0.05490372 -0.33201027 -0.7425623 -1.1507782 -0.6067617 0.6651813 -0.66755253
-0.07171447 0.3142054 1.1378943 0.884677 -0.78007853 0.53080374 -0.13498014 -0.56618494
0.75788534 -0.070372805 0.9054908 -0.22746822 -0.4701536 -0.62799436 -0.8217044 0.7889726
-0.6622204 0.5280615 0.15673961 -0.012423915 0.6408952 -0.32358435 0.007085476 0.9465928
-0.28227872 -0.40108904 -0.34960914 0.16516183 -0.8129203 -0.95617366 -0.82619286 -0.030966662
-0.34331724 0.34198228 -0.534185 -0.9680663 1.0368015 0.6656904 -0.8651433 0.49374235
0.795314 0.27366525 -0.42964134 -0.56850314 1.120926 -0.0003192429 0.17777948 0.5405077
0.6098789 0.8090959 0.53851616 -0.025400074 0.7372091 -0.6595547 1.222566 -0.44961786
0.6511017 0.2932626 -0.19775155 -0.96994317 0.03062386 -0.638318 -0.16708043 -0.73631513
0.5097032 1.037644 -0.27316886 0.27777168 0.1628457 0.8203985 -0.5806418 -0.26741827
0.44897464 -4.551576 -0.4031763 0.04715966 -0.60463595 0.63792807 0.32518753 -0.9104025
00000000: a4d8 083e 326a 30c0 89da 4fbc acbf 32bf
00000010: 6a22 04be e74d 1ebe 3d3b 5b3f 2cd6 a9be
00000020: d588 703e 86b6 3ec0 b4cb 2bbf d96b 12bf
00000030: 3cd9 9e3e 20e1 9c3d b589 983e 98ca 3c3f
00000040: e573 2f3f 4391 6b3e a4f1 983f decc dd3e
00000050: eac4 29bf 6362 983e 5057 88be 0833 cebe
00000060: 8ff2 23bf 898e 58c0 728f 35bf edae 39be
00000070: 351b 87be 4652 e43e 0f2b 5d3f 57aa 0b3f
00000080: 0e89 1bbe 8e3e 30be ff15 f8be cbaa 9bbd
00000090: 751f 9abf f165 3cbf 00eb 6d3f 88cf 233e
000000a0: 3049 dfbd 8e03 69c0 491b fb3e 6525 0ebf
000000b0: 2034 ba3d 7ddf e33d 53d6 bd3e 1503 5d3e
000000c0: 128b 86be aa09 0cbe cc6a 183f 8884 79bf
000000d0: 2727 7fbf 5ccc f13e f5ce ac3e 94da edbd
000000e0: 5a7c 67be 938b fe3d 73a8 9ebf efb8 72bf
000000f0: 707c d83e 549d ae3c 5e86 d1be 9e79 74bd
00000100: f7f6 033f ee88 c83e b6e3 19bf d314 dd3e
00000110: 24a4 e2be 5696 2b3f ad01 093d f566 c53e
00000120: 762a b13e 5286 313f b90a 6e3f f306 3cbf
00000130: cae5 5a3f dd2f 47be a27d 663f 7650 3c3d
00000140: 4fb4 43bc fae9 513f 72ea 843d 9164 a73e
00000150: fc1f b53e 2b4c 03bf dbfe 033f a419 26bf
00000160: b9b2 193f a0ec 21bd cfc1 373f e6e3 c0be
00000170: f9da 07bf f188 ddbc d861 27bf b611 67bf
00000180: 18d2 4dbf 3a2b 0e3f 744d 8e3d 1dc1 fbbc
00000190: 1924 64bf 0f67 5fbf c3e3 1e3e 3db2 2c3b
000001a0: e1b1 20bf 01c4 d6bf 8637 e93e 4277 29bf
000001b0: 4737 fa3d c480 393f 1320 0d3f 0c58 1dbf
000001c0: 89f4 0cbe 993f 313e 6d26 85bf eca0 1abf
000001d0: 1218 603f 5dc3 3f3f f873 51bf 84d1 2e3f
000001e0: 87fe 1d3f f9f2 9ebe 0588 6f3f a637 383e
000001f0: 9038 483f b262 883d 9235 893f a275 893e
00000200: 9119 753f 0794 96bf 4151 efbe 1a33 52bf
00000210: e13d 4fbc e435 353f a125 6abf 5cd5 7c3f
00000220: 788d 5d3d 9fdf cdbf aff4 e13e 3a61 efbd
00000230: 4c93 333f ad67 f43a e06e 4fbf f4a4 05bf
00000240: 3891 8dbf f07c b5bf ad0d 77be 3985 023f
00000250: 79a7 5cbd 72b1 993f 88e9 1bbf df2d 413f
00000260: 8afd 063d dc05 153f 1af6 003f 87d6 1c3f
00000270: 5da5 28be c7e0 053f da01 113f 31b0 1d3f
00000280: 34ce 37be 5463 c63e 2c1b c4bd 5ca4 09bf
00000290: 9cdd 65be 804b 5bbf 2d0f 3b3f 7c39 3dbc
000002a0: 0d23 d5be b9e2 603d 40fd a9be 9018 3ebf
000002b0: b34c 93bf bc54 1bbf 5249 2a3f b9e4 2abf
000002c0: 09df 92bd 88df a03e 85a6 913f 317a 623f
000002d0: 3ab3 47bf c1e2 073f 3c38 0abe 7ff1 10bf
000002e0: c604 423f 9e1f 90bd 3fce 673f 6eed 68be
000002f0: f9b7 f0be 3dc4 20bf 385b 52bf 1cfa 493f
00000300: 4787 29bf 0a2f 073f 5980 203e ad8d 4bbc
00000310: b511 243f d9ac a5be 482d e83b e853 723f
00000320: d686 90be 8b5b cdbe f8ff b2be 2f20 293e
00000330: 8b1b 50bf ccc7 74bf 6081 53bf ccad fdbc
00000340: 47c7 afbe 4d18 af3e 59c0 08bf 31d3 77bf
00000350: e9b5 843f b06a 2a3f 087a 5dbf cccb fc3e
00000360: b399 4b3f da1d 8c3e f3f9 dbbe 6c89 11bf
00000370: 817a 8f3f 0f60 a7b9 d30b 363e b65e 0a3f
00000380: 0621 1c3f e920 4f3f 32dc 093f d113 d0bc
00000390: bcb9 3c3f 94d8 28bf 0b7d 9c3f 5034 e6be
000003a0: 9aae 263f 8426 963e 627f 4abe 324e 78bf
000003b0: e4de fa3c cf68 23bf 2217 2bbe 267f 3cbf
000003c0: e97b 023f 85d1 843f cadc 8bbe 1738 8e3e
000003d0: 06c1 263e a305 523f f1a4 14bf 0ceb 88be
000003e0: 01e0 e53e 83a6 91c0 206d cebe 7d2a 413d
000003f0: 6cc9 1abf 414f 233f fb7e a63e 2310 69bf

FC.0.bias f4 [128]
0.024844334 -0.2427528 0.07451378 0.121919274 -0.086573444 -0.04881055 -0.058550943 -0.028799187
0.5198373 0.072632335 0.42573217 -0.09348853 -0.4449103 0.029968604 -0.10790247 0.21654876
-0.45564792 0.32095638 -0.26621088 0.4764999 0.5674265 0.471312 0.1752457 0.29713187
0.056856085 -0.008731177 -0.1369876 -0.10958101 0.44278714 0.1661316 0.38984683 0.18714382
0.26434436 -0.3767869 0.013356384 0.29227078 0.108496055 0.3409759 -0.3970687 0.4199817
-0.422243 -0.027431676 0.37690935 -0.05973234 -0.16641054 -0.035640273 0.39983004 0.32603094
-0.4588244 -0.13617675 -0.13987675 -0.26094607 -0.035822164 0.510968 -0.13978055 0.049526397
0.46121702 -0.13674971 0.19807708 0.20401084 0.54841137 0.13425827 -0.1388881 -0.24018663
-0.48183233 0.18320587 0.2606977 0.008144583 -0.108487785 -0.3015656 0.57226896 0.03746255
-0.7305136 0.1008718 -0.095888294 0.028999705 0.26235336 0.23978256 -0.29237753 0.1623756
-0.27876702 0.17956033 0.22562957 0.2484207 0.11864062 0.17511988 -0.21160111 -0.041374702
-0.34294948 0.10462822 0.068714485 0.54546356 0.100878574 -0.18202044 0.037863594 -0.2426964
0.3479662 0.28038087 0.3564985 -0.14292318 -0.03458878 -0.116120055 -0.31814146 0.15227403
0.21070996 -0.0127651645 0.30441818 0.856669 -0.47213092 0.50029194 -0.12828569 0.23509029
0.3876222 0.3653566 -0.18432029 0.4584461 -0.24404661 0.47015578 0.40554398 -0.10517455
0.10470697 -0.102854766 -0.19509678 -0.1717 0.056017853 -0.02155604 -0.21764275 0.19347674
00000000: 5886 cb3c 3194 78be ae9a 983d d0b0 f93d
00000010: 6b4d b1bd 92ed 47bd 1dd3 6fbd 46ec ebbc
00000020: 0f14 053f 43c0 943d 91f9 d93e ea76 bfbd
00000030: 48cb e3be b880 f53c f8fb dcbd f5be 5d3e
00000040: af4a e9be 6554 a43e cb4c 88be cbf7 f33e
00000050: dd42 113f ce4f f13e 9c73 333e ab21 983e
00000060: ede1 683d 360d 0fbc 7a46 0cbe 026c e0bd
00000070: ffb4 e23e 671e 2a3e 019a c73e a1a2 3f3e
00000080: 2558 873e 36ea c0be bcd4 5a3c 84a4 953e
00000090: 2e33 de3d 6594 ae3e 974c cbbe d707 d73e
000000a0: 3c30 d8be 65b8 e0bc 43fa c03e e6a9 74bd
000000b0: 8667 2abe 89fb 11bd 86b6 cc3e 87ed a63e
000000c0: 08eb eabe eb71 0bbe da3b 0fbe b99a 85be
000000d0: 43ba 12bd cdce 023f a222 0fbe 31dc 4a3d
000000e0: a324 ec3e 1e08 0cbe b8d4 4a3e 38e8 503e
000000f0: b064 0c3f 007b 093e af38 0ebe 7cf3 75be
00000100: bab2 f6be 529a 3b3e 2b7a 853e db70 053c
00000110: d82e debd ce66 9abe 3880 123f 5572 193d
00000120: f002 3bbf e095 ce3d 1561 c4bd ca90 ed3c
00000130: 2e53 863e 8f89 753e 82b2 95be ca45 263e
00000140: 8dba 8ebe aade 373e 700b 673e ff61 7e3e
00000150: daf9 f23d a052 333e f6ad 58be 8578 29bd
00000160: 1397 afbe 5247 d63d 2eba 8c3d 80a3 0b3f
00000170: 6d99 ce3d 9163 3abe db16 1b3d 6885 78be
00000180: a028 b23e 158e 8f3e f986 b63e 745a 12be
00000190: f7ac 0dbd 5ad0 edbd 70e3 a2be b9ed 1b3e
000001a0: 5ac4 573e fb24 51bc b3dc 9b3e a94e 5b3f
000001b0: 25bb f1be 2213 003f 535d 03be 82bb 703e
000001c0: 6b76 c63e 0510 bb3e 75be 3cbe 72b9 ea3e
000001d0: 5be7 79be 42b8 f03e 76a3 cf3e c165 d7bd
000001e0: 9c70 d63d 85a5 d2bd 73c7 47be 20d2 2fbe
000001f0: fa72 653d 4b96 b0bc bedd 5ebe c41e 463e

FC.2.weight f4 [128, 128]
-0.082462974 -0.18321435 0.11747499 0.030090021 0.015481733 -0.20477413 0.11636613 -0.18730013
-0.12512553 0.020912496 0.12649813 -0.20501865 -0.14562382 0.09965813 -0.21137406 -0.1751956
-0.03592982 0.029682558 -0.09513412 0.0138922455 0.17796986 -0.15858573 0.023116603 -0.19244249
0.10228398 -0.10492457 -0.02743132 0.09755271 -0.09368663 -0.080122195 -0.07864918 0.0390424
0.15553053 -0.19802377 0.0686479 0.07161902 0.1030699 -0.12518974 0.03289743 -0.19475484
-0.11675591 0.109130934 -0.22508125 -0.21594314 0.18915191 -0.05514805 -0.035056192 0.13878432
0.13639219 0.17217872 0.14645717 -0.072712615 -0.07691927 0.008389652 -0.09957744 0.008310935
0.12234506 -0.19419742 -0.18893194 0.09849362 0.121015415 0.12001727 -0.12373035 0.046335883
0.1880249 -0.13065507 -0.0033439752 0.027736597 0.15782362 -0.08655916 -0.13875988 0.03500034
-0.22432293 0.13082075 0.078838274 0.1347697 -0.11122766 0.15960182 -0.14164042 0.083657354
-0.22276525 -0.042163342 -0.11703173 -0.03575223 0.16321109 -0.19496168 0.03226605 0.04157336
-0.16274555 -0.024566958 0.11111392 -0.17785338 0.087510064 -0.15695451 0.0020228976 -0.14413187
-0.20815906 0.107400626 -0.06353802 -0.13696963 -0.21047999 -0.07596058 -0.15355068 0.06870938
-0.17180018 -0.014921148 -0.0387544 0.07658888 -0.18254162 -0.13753276 0.14207739 -0.24557139
-0.1682277 -0.18188529 0.059247233 0.1339984 0.16148925 0.078016415 0.19082114 -0.15439911
0.057771698 -0.117860846 -0.1517592 -0.14616485 0.064613976 0.16103 0.14571874 -0.049037665
-0.14581889 -0.07776024 0.004115969 -0.12985425 -0.378036 -0.28132546 0.17104036 -0.013291468
0.16627029 -0.02026315 0.14795436 0.36755213 -0.28383872 -0.140361 -0.09203972 -0.2193936
0.04429154 0.027635032 0.08635993 -0.0580789 0.1965666 0.23771518 0.2156563 -0.2026725
-0.1985254 -0.2340702 0.07560518 -0.068571605 0.1847833 0.17319834 -0.06913754 -0.6429499
0.3844149 -0.17033587 0.23867647 -0.26664418 0.1412956 0.43246844 0.21058187 0.12638605
-0.16225174 -0.748092 0.18425766 -0.015014842 -0.5778427 0.00280721 0.4166325 0.045942876
-0.07470239 0.30050248 0.40598017 0.30088574 -0.14559063 0.04213026 -0.18266189 0.11027493
0.35426316 0.058298457 0.48096234 0.0782716 0.2560639 -0.5945678 0.032148097 -0.14941736
-0.3006645 -0.2974182 -0.19506934 -0.058671284 0.26353082 0.56637585 0.24870434 0.016726365
-0.08797031 0.16201471 -0.18541107 -0.116197884 0.36460572 -0.13547751 -0.2753567 0.45801342
0.4103035 -0.09587288 0.35015106 -0.30149797 0.13410328 -0.23553869 0.51467603 -0.22983734
-0.078750804 0.5388675 0.13127339 0.37259158 -0.42268977 -0.14777558 0.2910285 0.02175529
0.13087325 0.118856065 0.36372682 -0.06830818 0.37015504 -0.014309257 -0.0040506762 0.36851472
0.33844906 0.08291642 0.2505636 0.04200224 -0.39286852 0.28976348 -0.31488973 0.10766086
0.4079452 0.25776452 -0.38489267 0.26755333 0.50326174 -0.0019891064 0.3266232 0.110983595
-0.143927 -0.8656534 -0.05987068 0.19317548 0.060082324 0.21461667 -0.13271792 -0.10057255
00000000: 59e2 a8bd 8b9c 3bbe ba96 f03d 597f f63c
00000010: 18a7 7d3c 4fb0 51be 5e51 ee3d 9bcb 3fbe
00000020: e820 00be af50 ab3c ba88 013e 69f0 51be
00000030: 691e 15be 9019 cc3d 7172 58be 7a66 33be
00000040: 262b 13bd d628 f33c add5 c2bd 4d9c 633c
00000050: bb3d 363e 4c64 22be 085f bd3c a50f 45be
00000060: 437a d13d b1e2 d6bd a6b7 e0bc b7c9 c73d
00000070: c7de bfbd 1b17 a4bd d212 a1bd ecea 1f3d
00000080: 6543 1f3e bec6 4abe 4597 8c3d feac 923d
00000090: 5016 d33d bd31 00be 75bf 063d d06d 47be
000000a0: b91d efbd 0a80 df3d b37b 66be 3320 5dbe
000000b0: 0ab1 413e ece2 61bd 1597 0fbd 7a1d 0e3e
000000c0: 65aa 0b3e 9e4f 303e def8 153e 5aea 94bd
000000d0: da87 9dbd c074 093c 42ef cbbd 972a 083c
000000e0: 0c90 fa3d b0db 46be 6077 41be 06b7 c93d
000000f0: eed6 f73d 9dcb f53d 5666 fdbd b2ca 3d3d
00000100: 9989 403e 71ca 05be 9826 5bbb dc37 e33c
00000110: 849c 213e ee45 b1bd 1217 0ebe 845c 0f3d
00000120: e9b4 65be e0f5 053e f675 a13d 1101 0a3e
00000130: 54cb e3bd a96e 233e 300a 11be 8c54 ab3d
00000140: 931c 64be 78b3 2cbd 55ae efbd ee70 12bd
00000150: cf20 273e 09a4 47be 6829 043d d448 2a3d
00000160: c5a6 26be a540 c9bc b28f e33d 321f 36be
00000170: 7a38 b33d afb8 20be 9792 043b 4e97 13be
00000180: a627 55be dcf4 db3d 3920 82bd c441 0cbe
00000190: 1188 57be 3891 9bbd 643c 1dbe 81b7 8c3d
000001a0: 63ec 2fbe d577 74bc efbc 1ebd a1da 9c3d
000001b0: 31ec 3abe 63d5 0cbe bc7c 113e 1177 7bbe
000001c0: e243 2cbe 2340 3abe 3aad 723d e036 093e
000001d0: 705d 253e 12c7 9f3d 9e66 433e cd1a 1ebe
000001e0: 04a2 6c3d 0761 f1bd c466 1bbe 3dac 15be
000001f0: 5554 843d 0ce5 243e 4b37 153e b8db 48bd
00000200: 8c51 15be c340 9fbd 40df 863b 83f8 04be
00000210: ef8d c1be e409 90be 3425 2f3e 75c4 59bc
00000220: c242 2a3e e8fe a5bc 5981 173e cb2f bc3e
00000230: 4f53 91be cbba 0fbe 527f bcbd b7a8 60be
00000240: 0c6b 353d dd62 e23c 7add b03d 24e4 6dbd
00000250: c148 493e 9c6b 733e 01d5 5c3e 6189 4fbe
00000260: 3e4a 4bbe 19b0 6fbe e3d6 9a3d 456f 8cbd
00000270: d537 3d3e e85a 313e fc97 8dbd 5d98 24bf
00000280: 08d2 c43e 876c 2ebe 9b67 743e 9685 88be
00000290: cbaf 103e 816c dd3e c6a2 573e 586b 013e
000002a0: 5225 26be f582 3fbf 0aae 3c3e d000 76bc
000002b0: 80ed 13bf 2bf9 373b db50 d53e 992e 3c3d
000002c0: 91fd 98bd 76db 993e a2dc cf3e b20d 9a3e
000002d0: b615 15be c890 2c3d b80b 3bbe d3d7 e13d
000002e0: fb61 b53e 5dca 6e3d b240 f63e dc4c a03d
000002f0: cf1a 833e 9835 18bf b9ad 033d dd00 19be
00000300: b3f0 99be 3347 98be 42c0 47be 4d51 70bd
00000310: 83ed 863e 02fe 103f 5aac 7e3e bb05 893c
00000320: c729 b4bd 2fe7 253e 66dc 3dbe 28f9 edbd
00000330: 9aad ba3e 9eba 0abe 8efb 8cbe bc80 ea3e
00000340: 4d13 d23e 0059 c4bd 0047 b33e f15d 9abe
00000350: 5f52 093e 0e31 71be cfc1 033f 7b5a 6bbe
00000360: 1a48 a1bd 38f3 093f 886c 063e 53c4 be3e
00000370: cb6a d8be 7b52 17be b001 953e 2638 b23c
00000380: a303 063e cf6a f33d 673a ba3e 29e5 8bbd
00000390: f684 bd3e 6071 6abc 89bb 84bb f6ad bc3e
000003a0: 3249 ad3e 16d0 a93d df49 803e 8a0a 2c3d
000003b0: 1026 c9be e15b 943e 3a39 a1be 4c7d dc3d
000003c0: 31de d03e b6f9 833e a710 c5be c0fc 883e
000003d0: c3d5 003f ab5b 02bb 283b a73e 5e4b e33d
000003e0: 9961 13be 769b 5dbf f53a 75bd cbcf 453e
000003f0: e218 763d 79c4 5b3e 35e7 07be fbf8 cdbd

FC.2.bias f4 [128]
-0.076658495 0.05422115 0.4822572 -0.022509411 -0.10798461 0.20375709 -0.110656045 0.14096062
-0.0027109706 0.050162435 0.013122764 0.2513658 0.19463003 -0.012700219 0.07012103 0.30918694
-0.011521419 0.22777842 -0.087128535 0.07177303 -0.10426214 -0.10785873 0.23491035 -0.027774226
0.14886439 -0.01301204 0.05836924 0.04603354 0.054045696 0.20045486 0.023746537 -0.23308827
-0.06511291 0.058747046 -0.017128728 -0.015754972 0.1611028 0.10038124 0.025060395 -0.14761133
0.057856753 -0.094542764 -0.09451422 0.12043703 0.07433199 -0.06719076 0.091603406 -0.022983085
0.16802473 0.017272487 -0.03585679 0.14452219 0.26335979 0.11888617 -0.17869477 -0.031593163
0.08245152 -0.005574883 0.028564325 -0.025300682 0.08082729 -0.07104273 -0.0049304157 -0.04813622
-0.05176721 0.07775536 -0.0027026797 -0.049489472 0.04220483 0.076337755 0.14180362 -0.2896915
0.15280977 0.026122393 -0.02324723 -0.09498992 0.21294427 -0.15053453 0.02320542 -0.24798004
0.089505695 -0.037447676 -0.1625012 -0.13046145 0.09788908 -0.13022722 -0.06321182 0.14021
0.025683284 -0.21468319 0.04660775 0.0024771485 -0.04488175 0.23171622 0.041185714 0.0859006
-0.098957404 0.026008492 0.0037293404 -0.07861299 0.082358636 0.11064803 0.024566093 0.1650589
0.07843772 -0.0045163534 0.09214542 -0.0011700455 -0.036021184 -0.047901485 0.06171704 -0.09996069
0.20718336 -0.1360344 -0.17919528 0.046062514 0.15452282 -0.07383222 0.059196267 -0.08860993
0.05965434 0.054528404 -0.0916423 -0.01003592 0.012412045 0.07054897 -0.10726702 -0.040035874
00000000: 21ff 9cbd ff16 5e3d 6aea f63e a865 b8bc
00000010: 0927 ddbd b3a5 503e a39f e2bd fb57 103e
00000020: 8aaa 31bb 2077 4d3d dd00 573c 05b3 803e
00000030: 184d 473e 9414 50bc 9d9b 8f3d c04d 9e3e
00000040: 55c4 3cbc bf3e 693e 7270 b2bd bdfd 923d
00000050: 6487 d5bd 0ae5 dcbd 578c 703e c686 e3bc
00000060: e86f 183e 7430 55bc 9614 6f3d aa8d 3c3d
00000070: 055f 5d3d 0a44 4d3e 1988 c23c b1ae 6ebe
00000080: eb59 85bd bea0 703d 8c51 8cbc 9210 81bc
00000090: 22f8 243e ae94 cd3d 754b cd3c 6d27 17be
000000a0: 34fb 6c3d a39f c1bd ac90 c1bd b1a7 f63d
000000b0: 5f3b 983d 4f9b 89bd 919a bb3d 0647 bcbc
000000c0: ad0e 2c3e 087f 8d3c 92de 12bd a0fd 133e
000000d0: 18d7 863e 987a f33d c3fb 36be d567 01bd
000000e0: 58dc a83d 82ad b6bb bbff e93c 6043 cfbc
000000f0: c788 a53d da7e 91bd 538f a1bb 7c2a 45bd
00000100: db09 54bd 343e 9f3d 711f 31bb 79b5 4abd
00000110: f9de 2c3d f856 9c3d f834 113e 7252 94be
00000120: 2a7a 1c3e a1fe d53c fa70 bebc 138a c2bd
00000130: 100e 5a3e b925 1abe 4b19 be3c 7bee 7dbe
00000140: c34e b73d bc62 19bd b766 26be b097 05be
00000150: 127a c83d 495a 05be 3375 81bd 3693 0f3e
00000160: c065 d23c e9d5 5bbe c5e7 3e3d a857 223b
00000170: edd5 37bd 0447 6d3e 5ab2 283d a7ec af3d
00000180: 2eaa cabd c30f d53c f367 743b d9ff a0bd
00000190: a5ab a83d 6f9b e23d d53e c93c 3305 293e
000001a0: f5a3 a03d ebfd 93bb bdb6 bc3d 365c 99ba
000001b0: f38a 13bd 5934 44bd 02cb 7c3d 31b8 ccbd
000001c0: e027 543e 9a4c 0bbe f87e 37be 0cac 3c3d
000001d0: 3b3b 1e3e 5935 97bd c977 723d 1f79 b5bd
000001e0: 1c58 743d 2d59 5f3d f5ae bbbd b36d 24bc
000001f0: e45b 4b3c fa7b 903d d0ae dbbd a8fc 23bd

FC.4.weight f4 [4, 128]
-0.16832009 0.38518733 0.697271 -0.267348 -0.005723496 0.52955705 -0.099884756 0.5057189
0.22101556 -0.22569683 0.090513006 0.23000075 1.0950558 -0.58429295 -0.32141712 0.9186637
-0.5047936 -0.28452307 0.16595003 -0.15079357 -0.32792822 -0.2977198 0.06597956 -0.29174614
-0.08799823 0.7552212 -0.12352985 -0.0655217 0.2712316 0.39412206 -0.04048866 0.008775211
0.20606385 0.4803604 -0.02274129 -0.5397304 -0.15572815 0.04530417 0.7177079 0.22905986
-0.6133267 0.03667552 0.21934341 0.32209158 0.41106343 0.0041127084 -0.46891582 -0.47613388
-0.10777977 0.09143221 -0.31890884 0.11795281 -0.26194015 -0.45220864 -0.44898152 -0.11231325
0.09059869 0.40156096 -0.15587106 -0.002160115 -0.49995992 0.07860966 -0.23607592 0.28460568
0.04323636 0.5699065 0.15642355 0.37935576 0.03894386 0.241341 0.18119907 -0.16092998
-0.5197733 0.10971313 -0.16444762 0.14417414 -0.35196412 -0.34384805 0.35496065 -0.3353906
-0.3145299 -0.0630848 0.2709625 -0.0047783353 -0.16814975 -0.08705742 0.06656451 0.3681378
-0.16295737 0.23970902 -0.098505095 -0.3969121 -0.06532003 -0.00406895 -0.6145073 -0.41018078
0.19659986 0.2033571 -0.4384186 0.29565632 0.036793318 0.54457116 -0.286987 -0.41290128
-0.24101557 -0.41066626 0.49984816 -0.23481877 -0.19536205 -0.34069467 -0.33198583 0.19766095
0.13312991 -0.45468828 0.0048150695 -0.4119965 0.23476137 -0.1813277 -0.6181624 -0.54082626
-0.27544674 0.033918932 0.07310665 -0.312756 -0.3411274 0.43470743 -0.6908321 0.5273031
0.12781744 0.47200593 0.3946907 -0.10030683 -0.072702445 0.49663123 -0.15102959 0.34456268
-0.50238734 0.19328234 0.27791 0.5454896 0.60998094 -0.30872324 0.0073726987 0.60389394
-0.31792104 0.1847359 -0.13951567 -0.28363252 -0.9594462 -0.7611682 0.3699851 -0.21242483
0.28076488 0.8040189 0.089587525 -0.60201484 0.6052224 0.52641237 -0.17404956 -0.045745816
-0.08501015 0.38236508 -0.31838417 -0.28319505 0.013273878 0.3566284 0.30285147 0.40607643
-0.32556343 0.19915788 -0.20182267 0.17834118 0.043735117 -0.6204204 -0.34699267 0.132214
-0.13929181 0.3202627 -0.052077487 0.30309668 0.24528323 -0.27164352 -0.6348665 -0.26970723
-0.6431194 0.4325734 -0.25131825 0.058010213 -0.13978606 0.15328805 0.4685701 -0.32151708
-0.48842376 0.13057664 0.1657591 0.4049944 0.1842484 0.5675037 0.26166397 -1.1180756
-0.26687753 0.11868681 0.005344823 0.1624576 1.0890434 0.23002476 -0.019161355 0.23815928
-0.21702693 -0.12689205 0.55616045 0.31691176 0.31520158 0.400604 0.09991467 0.3216954
-0.015625935 0.49857304 -0.14191799 -0.026822668 -0.316563 0.32525808 -0.20905145 -0.26645765
-0.19234684 -0.26282254 -0.17178921 -0.16675988 -0.24850504 0.4030461 -0.71803266 -0.15651108
-0.6168838 0.22456653 0.6251342 -0.046122745 -0.08278499 0.11849709 -0.53668225 0.089964025
0.33690304 -0.42840958 -0.88512325 -0.4942606 0.06237969 0.083262675 -0.33666882 0.19155054
-0.53243583 0.07140341 0.40161747 -0.21822642 -0.10447028 0.316976 -0.523069 0.6884819
00000000: 1a5c 2cbe 4637 c53e 5a80 323f d6e1 88be
00000010: 2a8c bbbb 0d91 073f 6190 ccbd cb76 013f
00000020: e751 623e 121d 67be e25e b93d 5185 6b3e
00000030: ca2a 8c3f 3994 15bf c990 a4be 8b2d 6b3f
00000040: 273a 01bf 02ad 91be ceee 293e a169 1abe
00000050: 35e6 a7be bb6e 98be 4b20 873d c05f 95be
00000060: 6a38 b4bd 2d56 413f 38fd fcbd 3e30 86bd
00000070: dede 8a3e 5eca c93e 70d7 25bd e7c5 0f3c
00000080: 6702 533e ccf1 f53e f14b babc c62b 0abf
00000090: 3377 1fbe de90 393d b4bb 373f ab8e 6a3e
000000a0: fb02 1dbf 1239 163d 8f9b 603e 30e9 a43e
000000b0: e876 d23e e6c3 863b bc15 f0be d2c7 f3be
000000c0: a4bb dcbd cf40 bb3d 0548 a3be 3e91 f13d
000000d0: 051d 86be e487 e7be e8e0 e5be 7d04 e6bd
000000e0: ce8b b93d 6699 cd3e aa9c 1fbe b790 0dbb
000000f0: bffa ffbe 1afe a03d e3bd 71be d6b7 913e
00000100: 9c18 313d 64e5 113f 7f2d 203e eb3a c23e
00000110: 9983 1f3d 1822 773e 408c 393e d4ca 24be
00000120: dd0f 05bf 47b1 e03d f564 28be 63a2 133e
00000130: a434 b4be da0c b0be 67bd b53e 51b8 abbe
00000140: 100a a1be 9b32 81bd 99bb 8a3e 9593 9cbb
00000150: 732f 2cbe 294b b2bd f952 883d 8f7c bc3e
00000160: 4cde 26be 4876 753e 0abd c9bd 1038 cbbe
00000170: 82c6 85bd d454 85bb 5a50 1dbf 3703 d2be
00000180: 7951 493e d83c 503e 6778 e0be 4460 973e
00000190: 97b4 163d 0469 0b3f f6ef 92be cc67 d3be
000001a0: c9cc 76be d942 d2be 19ec ff3e 5574 70be
000001b0: fd0c 48be 886f aebe 0cfa a9be a267 4a3e
000001c0: 3553 083e e7cc e8be bbc7 9d3b 35f1 d2be
000001d0: 4965 703e f8ad 39be e43f 1ebf 9773 0abf
000001e0: 5b07 8dbe 94ee 0a3d f0b8 953d 8e21 a0be
000001f0: 40a8 aebe f991 de3e 5fda 30bf 56fd 063f
00000200: 93e2 023e c3aa f13e e614 ca3e ab6d cdbd
00000210: 05e5 94bd 7346 fe3e 80a7 1abe 856a b03e
00000220: 759c 00bf ceeb 453e 384a 8e3e 35a5 0b3f
00000230: b627 1c3f f910 9ebe ae96 f13b cb98 1a3f
00000240: 8cc6 a2be 682b 3d3e 32dd 0ebe 4838 91be
00000250: 449e 75bf ebdb 42bf b06e bd3e e585 59be
00000260: 6ac0 8f3e 2fd4 4d3f aa79 b73d a51d 1abf
00000270: dbef 1a3f f6c2 063f 0c3a 32be f75f 3bbd
00000280: cd19 aebd 5bc5 c33e 4003 a3be f1fe 90be
00000290: ae7a 593c ff97 b63e 590f 9b3e 40e9 cf3e
000002a0: 40b0 a6be 0bf0 4b3e 9aaa 4ebe 129f 363e
000002b0: 9823 333d dfd3 1ebf 06a9 b1be 1b63 073e
000002c0: 83a2 0ebe 79f9 a33e 344f 55bd 7d2f 9b3e
000002d0: 872b 7b3e dc14 8bbe 9c86 22bf 1117 8abe
000002e0: 79a3 24bf 437a dd3e c9ac 80be 1e9c 6d3d
000002f0: 1424 0fbe 8bf7 1c3e 6ce8 ef3e e39d a4be
00000300: ae12 fabe e2b5 053e c1bc 293e 6d5b cf3e
00000310: 9dab 3c3e ec47 113f d2f8 853e 1a1d 8fbf
00000320: 2ca4 88be 1212 f33d a023 af3b 495b 263e
00000330: c665 8b3f 9c8b 6b3e 46f8 9cbc 07e0 733e
00000340: 4f3c 5ebe fdef 01be 8860 0e3f 4242 a23e
00000350: 1a62 a13e f81b cd3e 10a0 cc3d 42b5 a43e
00000360: f601 80bc f744 ff3e f352 11be 36bb dbbc
00000370: 8c14 a2be 3a88 a63e 9511 56be 236d 88be
00000380: 92f6 44be ad90 86be 83e9 2fbe 1ac3 2abe
00000390: 1b78 7ebe 0f5c ce3e fdd0 37bf 7144 20be
000003a0: 19ec 1dbf c5f4 653e cc08 203f 34eb 3cbd
000003b0: 2d8b a9bd 9aae f23d 0264 09bf 0f3f b83d
000003c0: 8e7e ac3e 8058 dbbe 7097 62bf ba0f fdbe
000003d0: d981 7f3d 9f85 aa3d db5f acbe d325 443e
000003e0: b74d 08bf f33b 923d cea0 cd3e bf76 5fbe
000003f0: 84f4 d5bd ae4a a23e dae7 05bf 5a40 303f

FC.4.bias f4 [4]
0.051657572 0.031092566 0.08175351 -0.06666808
00000000: e496 533d d6b5 fe3c 626e a73d 4689 88bd
