DQN/weights-and-plot/final_weights_400.pth (torch, 75500 bytes, 6 tensors)

FC.0.weight f4 [128, 8]
0.25302976 -3.9623127 0.08879969 -0.58555394 -0.17100261 -0.1969446 0.80841637 -0.2897747
0.18311755 -3.9199564 -0.43749422 -0.6539738 0.10055733 0.105220065 0.16231774 0.6738994
0.6512001 0.3090337 1.2649058 0.47623938 -0.6093539 0.214735 -0.3085143 -0.55045605
-0.6837946 -4.0577874 -0.7248229 -0.16711868 -0.18864393 0.41940412 0.80084634 0.45356607
-0.3334699 -0.25497583 -0.592278 -0.036184434 -1.222108 -0.7671432 0.86786735 0.056380954
0.3006747 -4.882661 0.30406994 -0.567324 0.048439465 0.08338489 0.13850826 0.12071691
-0.2350041 -0.10568686 0.47783068 -1.0225034 -1.0232517 0.43135655 0.26730096 0.09254179
-0.31249765 0.16432793 -1.3900291 -0.86192435 0.32661557 0.017156277 -0.61384344 -0.2797392
0.9875123 0.35067058 -0.7137175 0.573729 -0.46610558 0.5364452 -0.11248444 0.3950396
0.33800694 0.7084092 0.91000634 -0.7510455 0.997121 -0.13734668 0.81047356 -0.08966274
-0.13489626 0.7138092 -0.0033965814 0.19743446 0.34433028 -0.48540527 0.6372428 -0.8130215
0.5040315 0.10049685 0.60098153 -0.35744277 -0.56338674 -0.106002554 -0.74755526 -0.9291942
-0.50677997 0.49510053 0.1859871 -0.19363151 -0.9604722 -0.91813827 0.25999236 -0.092558205
-0.7733562 -1.9374074 0.29740515 -0.6571521 0.19727315 0.6263354 0.5409147 -0.4709458
-0.000702894 0.084636584 -0.9137074 -0.67506397 0.9793801 0.8359013 -0.6838706 0.6253774
0.45894614 -0.22136192 0.89464694 0.20014317 0.77180153 -0.059594974 1.1674871 0.21631396
0.6986664 -1.4534165 -0.54507536 -0.7000953 0.12971285 0.73185843 -0.93254685 1.015052
0.026777515 -2.2569175 0.6093977 -0.28886655 0.46775702 0.14563783 -0.8121354 -0.3593675
-0.9510105 -1.2509955 -0.104991324 0.4263629 -0.14568774 1.2451429 -0.7302368 0.62279713
0.16011006 0.45095244 0.5363713 0.6398549 -0.07737359 0.51718223 0.43392178 0.6152304
-0.28167444 0.39323506 -0.07537945 -0.51412684 -0.1106441 -0.8333476 0.6486492 -0.16536272
-0.33008745 -0.019626647 -0.49569038 -0.7011003 -1.2799877 -0.5848911 0.5505284 -0.7043393
0.13963224 0.24770735 1.1787935 1.0611166 -0.72877324 0.5007724 -0.40297017 -0.78544843
0.7262087 -0.15872438 0.91964823 -0.2612983 -0.6529655 -0.5163605 -0.8458151 0.7293596
-0.73099416 0.47148025 0.17265221 -0.046629544 0.69727135 -0.19874644 -0.057417735 0.9362998
-0.28645372 -0.4598328 -0.3454336 0.07553494 -0.81744576 -0.90789014 -0.99337023 -0.17866479
-0.43651256 0.45515212 -0.35776705 -0.9857986 1.1379888 0.816942 -0.805046 0.41897708
0.80509734 0.2123138 -0.26653945 -0.41884682 1.4500543 0.035452683 0.33961156 0.5308236
0.750459 0.7288876 0.6319355 -0.01876327 0.74835515 -0.6800648 1.1840588 -0.52345914
0.707461 0.29776847 -0.20194855 -0.9412839 -0.004846534 -0.673196 -0.011832632 -0.7897845
0.7787545 1.0118482 -0.23612171 0.29957548 0.17715703 0.877098 -0.417321 -0.31000754
0.5288972 -5.3722067 -0.50119805 -0.021805318 -0.44022867 0.45714235 0.18325405 -1.1874439
00000000: 1e8d 813e 8896 7dc0 9ddc b53d dde6 15bf
00000010: 4f1b 2fbe d8ab 49be 60f4 4e3f 595d 94be
00000020: 2b83 3b3e 91e0 7ac0 3eff dfbe d46a 27bf
00000030: 00f1 cd3d 9e7d d73d 9f36 263e ac84 2c3f
00000040: 0db5 263f aa39 9e3e 6fe8 a13f a6d5 f33e
00000050: 9efe 1bbf 7ee3 5b3e 96f5 9dbe b0ea 0cbf
00000060: 2a0d 2fbf 65d9 81c0 fe8d 39bf 2921 2bbe
00000070: e02b 41be 23bc d63e 4404 4d3f d039 e83e
00000080: 91bc aabe 318c 82be 889f 17bf 2136 14bd
00000090: 096e 9cbf 7f63 44bf 8e2c 5e3f b7ef 663d
000000a0: 09f2 993e c23e 9cc0 0eaf 9b3e 253c 11bf
000000b0: 7668 463d b2c5 aa3d 1cd5 0d3e 6d3a f73d
000000c0: eaa4 70be 5a72 d8bd 39a6 f43e 64e1 82bf
000000d0: e9f9 82bf c4da dc3e acdb 883e 8d86 bd3d
000000e0: b1ff 9fbe 9545 283e 79ec b1bf 13a7 5cbf
000000f0: 283a a73e 528b 8c3c d824 1dbf fa39 8fbe
00000100: 9bcd 7c3f 188b b33e 31b6 36bf e7df 123f
00000110: 64a5 eebe 7954 093f 3e5e e6bd a142 ca3e
00000120: 3f0f ad3e 4e5a 353f 2df6 683f 8544 40bf
00000130: 5243 7f3f 9ca4 0cbe 327b 4f3f 19a1 b7bd
00000140: 3f22 0abe 33bc 363f 2e99 5ebb 422c 4a3e
00000150: 0f4c b03e 0a87 f8be 5822 233f 2d22 50bf
00000160: 3508 013f 4bd1 cd3d edd9 193f bd02 b7be
00000170: 1d3a 10bf de17 d9bd c85f 3fbf acdf 6dbf
00000180: 55bc 01bf d17d fd3e 6773 3e3e 5747 46be
00000190: 82e1 75bf 1c0b 6bbf b81d 853e 288f bdbd
000001a0: acfa 45bf f7fc f7bf 7d45 983e 1f3b 28bf
000001b0: f901 4a3e 8457 203f 6379 0a3f cf1f f1be
000001c0: 6b42 38ba f255 ad3d bae8 69bf fed0 2cbf
000001d0: a7b8 7a3f a1fd 553f 2512 2fbf bc18 203f
000001e0: fdfa ea3e b3ac 62be 9507 653f 55f2 4c3e
000001f0: c994 453f dc19 74bd 3870 953f 6881 5d3e
00000200: cddb 323f 8d09 babf 0f8a 0bbf 7239 33bf
00000210: 72d3 043e 135b 3b3f 64bb 6ebf 39ed 813f
00000220: 855c db3c 5671 10c0 7d01 1c3f 51e6 93be
00000230: d97d ef3e 1522 153e 1be8 4fbf 04ff b7be
00000240: 6d75 73bf 9f20 a0bf b105 d7bd 3d4c da3e
00000250: 2b2f 15be d860 9f3f cdf0 3abf a26f 1f3f
00000260: e4f3 233e 3de3 e63e a14f 093f 88cd 233f
00000270: 0b76 9ebd 0e66 043f ff2a de3e bd7f 1d3f
00000280: a237 90be 1b56 c93e 8b60 9abd d19d 03bf
00000290: 6099 e2bd 4556 55bf e00d 263f d854 29be
000002a0: 3901 a9be 10c8 a0bc 21cb fdbe 4f7b 33bf
000002b0: a3d6 a3bf 6cbb 15bf 6eef 0c3f 954f 34bf
000002c0: c1fb 0e3e ffa6 7d3e b5e2 963f abd2 873f
000002d0: e290 3abf 9f32 003f 1b52 cebe 2613 49bf
000002e0: d0e8 393f a588 22be 116e 6b3f e4c8 85be
000002f0: bf28 27bf 3430 04bf 5787 58bf 50b7 3a3f
00000300: 6f22 3bbf dc65 f13e becb 303e 9ffe 3ebd
00000310: 6080 323f 3084 4bbe dc2e 6bbd 58b1 6f3f
00000320: 10aa 92be 346f ebbe acdc b0be 10b2 9a3d
00000330: 2044 51bf 7d6b 68bf 834d 7ebf e7f3 36be
00000340: 937e dfbe b309 e93e 3e2d b7be 4c5d 7cbf
00000350: 9ea9 913f 1c23 513f 7f17 4ebf 2a84 d63e
00000360: dc1a 4e3f ca68 593e dc77 88be 1773 d6be
00000370: 619b b93f d536 113d 91e1 ad3e 0ee4 073f
00000380: 151e 403f 6198 3a3f 86c6 213f 6eb5 99bc
00000390: 3494 3f3f ba18 2ebf 3d8f 973f 6b01 06bf
000003a0: 2a1c 353f 1c75 983e 9acb 4ebe fbf7 70bf
000003b0: adcf 9ebb 9356 2cbf a8dd 41bc 512f 4abf
000003c0: 745c 473f 3e84 813f e4c9 71be f561 993e
000003d0: a768 353e 7f89 603f 19ab d5be 4fb9 9ebe
000003e0: cf65 073f 1ee9 abc0 844e 00bf 11a1 b2bc
000003f0: a765 e1be 900e ea3e f3a6 3b3e 29fe 97bf

FC.0.bias f4 [128]
0.038626205 -0.15080981 0.07140144 0.26110527 -0.06452363 -0.16188712 -0.016800076 0.0427598
0.47432747 0.03202621 0.47447708 -0.11076396 -0.59372604 -0.023817284 -0.1547701 0.23895064
-0.4576464 0.41054493 -0.4019332 0.45107216 0.5997302 0.49559426 0.120425284 0.268268
-0.04464483 -0.011035638 -0.15052836 -0.080323204 0.37505075 0.11115784 0.3248478 0.23273937
0.27745566 -0.45025918 -0.078915894 0.2141742 0.119108774 0.38016793 -0.4471749 0.4166939
-0.468118 0.13509658 0.3363339 -0.08454556 -0.22769336 0.12623228 0.36425382 0.35146993
-0.4099119 -0.235323 -0.12540956 -0.21318142 0.02322149 0.6083857 -0.06397547 0.083681725
0.53555524 -0.117503986 0.15797818 0.20399854 0.5748206 0.06722726 -0.14441541 -0.23780654
-0.35347566 0.20044412 0.3238861 -0.055992965 -0.097619146 -0.32427615 0.5641355 0.06708638
-0.68354094 0.06796965 -0.12063154 1.9194697e-05 0.16452788 0.27652276 -0.33742628 0.07514262
-0.45024946 0.15766339 0.19404912 0.27390116 0.13639902 0.26318595 -0.24765675 -0.17203188
-0.30207956 0.13848644 0.104964964 0.55196303 0.02869344 -0.27880493 0.068207175 -0.25725797
0.46197978 0.22614609 0.3127854 -0.21139196 0.001664489 -0.12202005 -0.21204215 0.1602789
0.19223106 -0.21654698 0.1641514 0.8408454 -0.47840405 0.4410691 -0.08264401 0.22446643
0.30820045 0.34546667 -0.22634198 0.46976125 -0.22302698 0.40611836 0.42288783 -0.08429347
0.047960244 -0.1986792 -0.25227213 -0.12413178 0.037150968 0.025564687 -0.039993078 -0.022140786
00000000: 8336 1e3d e36d 1abe eb3a 923d 97af 853e
00000010: f724 84bd bdc5 25be 50a0 89bc e624 2f3d
00000020: 0ddb f23e ea2d 033d a9ee f23e 37d8 e2bd
00000030: 6efe 17bf 771c c3bc 0e7c 1ebe 7aaf 743e
00000040: a150 eabe f232 d23e 30ca cdbe eef2 e63e
00000050: eb87 193f 88be fd3e 88a1 f63d 6c5a 893e
00000060: 7fdd 36bd d2ce 34bc 1b24 1abe 7e80 a4bd
00000070: a706 c03e b9a6 e33d 7352 a63e 3b53 6e3e
00000080: ab0e 8e3e 5f88 e6be a89e a1bd 7b50 5b3e
00000090: 4def f33d 5fa5 c23e 1cf4 e4be e758 d53e
000000a0: 2aad efbe c256 0a3e f533 ac3e 3926 adbd
000000b0: 7328 69be 0943 013e 7a7f ba3e def3 b33e
000000c0: f9df d1be 83f8 70be 5d6b 00be 3b4c 5abe
000000d0: ff3a be3c 2abf 1b3f 9205 83bd 5361 ab3d
000000e0: 261a 093f eea5 f0bd 08c5 213e fee4 503e
000000f0: 7127 133f 72ae 893d a2e1 13be 8f83 73be
00000100: c3fa b4be 3941 4d3e 66d4 a53e e158 65bd
00000110: 8cec c7bd 8607 a6be 2f6b 103f 9664 893d
00000120: 8afc 2ebf ac33 8b3d ab0d f7bd 4c04 a137
00000130: ff79 283e 6494 8d3e 23c3 acbe 60e4 993d
00000140: 1987 e6be 8372 213e d0b4 463e c63c 8c3e
00000150: 2fac 0b3e 4fc0 863e bb99 7dbe 2029 30be
00000160: 2caa 9abe 64cf 0d3e dff7 d63d 734d 0d3f
00000170: 810e eb3c 85bf 8ebe 34b0 8b3d 51b7 83be
00000180: 9d88 ec3e d792 673e 6825 a03e 2277 58be
00000190: fc2a da3a a6e5 f9bd 9421 59be 2720 243e
000001a0: 38d8 443e 7ebe 5dbe 4e17 283e a541 573f
000001b0: 60f1 f4be cfd3 e13e 4341 a9bd 87da 653e
000001c0: 73cc 9d3e 02e1 b03e 31c6 67be 8c84 f03e
000001d0: 2f61 64be bfee cf3e c184 d83e 0ea2 acbd
000001e0: f671 443d 8f72 4bbe d029 81be cd38 febd
000001f0: 9d2b 183d 096d d13c c8cf 23bd 9860 b5bc

FC.2.weight f4 [128, 128]
-0.11348019 -0.18321435 0.11747499 -0.0016541505 -0.01618148 -0.23312575 0.08647787 -0.18730013
-0.15664457 -0.005855255 0.09482962 -0.20501865 -0.17616388 0.069018774 -0.21137406 -0.20641598
-0.03592982 0.029682558 -0.09513412 -0.017841572 0.14626862 -0.18990128 -0.00844428 -0.19244249
0.07156826 -0.10492457 -0.02743132 0.09755271 -0.12517563 -0.080122195 -0.07864918 0.0073420596
0.1269402 -0.19802377 0.036961395 0.07161902 0.07169692 -0.12518974 0.03289743 -0.22454633
-0.1411354 0.109130934 -0.2568259 -0.21594314 0.15786456 -0.05514805 -0.064615324 0.109627165
0.105637476 0.17217872 0.14645717 -0.072712615 -0.108650565 0.008389652 -0.130734 -0.023421567
0.09062098 -0.2235143 -0.18893194 0.0687272 0.0899614 0.08828919 -0.12373035 0.015709104
0.1880249 -0.15864684 -0.034675807 0.027736597 0.15782362 -0.08655916 -0.17049538 0.03500034
-0.22432293 0.13082075 0.048762154 0.10511555 -0.14211747 0.12832256 -0.17131926 0.083657354
-0.22276525 -0.042163342 -0.1486924 -0.03575223 0.13879406 -0.22654308 0.002056996 0.04157336
-0.16565843 -0.024566958 0.11111392 -0.17785338 0.087510064 -0.15695451 0.0020228976 -0.1752833
-0.2372146 0.107400626 -0.08419865 -0.13696963 -0.21047999 -0.10763272 -0.18345702 0.04443276
-0.20351379 -0.014921148 -0.07025958 0.044838116 -0.18486035 -0.1673699 0.110548474 -0.27289698
-0.1682277 -0.21353883 0.027552139 0.10278359 0.1320464 0.04628029 0.19082114 -0.15439911
0.026044814 -0.117860846 -0.1517592 -0.14616485 0.033893894 0.13136847 0.11947741 -0.049037665
-0.32926372 -0.17149511 -0.056501184 -0.27618667 -0.43931642 -0.7877096 0.11903147 -0.0518859
0.20391868 0.027102191 0.19799963 0.24758859 -0.3526391 -0.30220956 -0.08056118 -0.12033981
-0.00031097463 -0.06803726 0.040877 -0.06264116 0.2164238 0.22696553 0.21064514 -0.22150597
-0.1594231 -0.23275314 0.10132098 0.0066800187 0.22666739 0.1890839 -0.053982235 -0.82395107
0.35339612 -0.22506869 0.20639631 -0.23914081 -0.017050752 0.39578414 0.24808541 0.10701763
-0.22833255 -0.7838932 0.16422611 -0.020860955 -1.1305102 -0.04247444 0.36950523 0.020228589
-0.10176256 0.31796417 0.317139 0.26136824 -0.20135278 0.052550394 -0.18878576 0.10110795
0.4119868 -0.10649114 0.43236932 0.12929246 0.2069779 -0.72329634 0.040572606 -0.21268281
-0.42632884 -0.3101778 -0.26767305 -0.113459386 0.2649519 0.52109647 0.3735467 -0.03211201
-0.1733842 0.31484315 -0.21675618 -0.189306 0.41560137 -0.082734644 -0.34905303 0.40157887
0.36732173 -0.10263226 0.3750345 -0.2584599 0.10534373 -0.23613934 0.4406059 -0.25572196
-0.17214464 0.80620545 0.05659659 0.3624153 -0.49429256 -0.0978315 0.27299613 0.036890276
0.094946 0.08820325 0.35181504 -0.15791126 0.37431154 -0.013863977 -0.17975865 0.32446522
0.3313339 0.12472976 0.18698198 0.036373712 -0.44603217 0.24545993 -0.40014464 0.13044819
0.429004 0.23737316 -0.54177994 0.28556257 0.56990844 0.018872308 0.2801831 0.16988915
-0.19456278 -1.1597694 -0.02570146 0.028946992 0.08491704 0.19005868 -0.16973542 -0.040583484
00000000: 4d68 e8bd 8b9c 3bbe ba96 f03d 15d0 d8ba
00000010: 068f 84bc 84b8 6ebe 4f1b b13d 9bcb 3fbe
00000020: 6f67 20be 70dd bfbb 0836 c23d 69f0 51be
00000030: 4e64 34be b759 8d3d 7172 58be b65e 53be
00000040: 262b 13bd d628 f33c add5 c2bd 7d28 92bc
00000050: 71c7 153e 7b75 42be e159 0abc a50f 45be
00000060: 6192 923d b1e2 d6bd a6b7 e0bc b7c9 c73d
00000070: 0a2e 00be 1b17 a4bd d212 a1bd a995 f03b
00000080: 9dfc 013e bec6 4abe d564 173d feac 923d
00000090: d6d5 923d bd31 00be 75bf 063d 79ef 65be
000000a0: cc85 10be 0a80 df3d af7e 83be 3320 5dbe
000000b0: 3fa7 213e ece2 61bd 0a55 84bd 3584 e03d
000000c0: 7658 d83d 9e4f 303e def8 153e 5aea 94bd
000000d0: 3084 debd c074 093c 22df 05be 96de bfbc
000000e0: 7e97 b93d efe0 64be 6077 41be d9c0 8c3d
000000f0: af3d b83d f6d0 b43d 5666 fdbd 61b0 803c
00000100: 9989 403e 5174 22be 3808 0ebd dc37 e33c
00000110: 849c 213e ee45 b1bd 5796 2ebe 845c 0f3d
00000120: e9b4 65be e0f5 053e d3ba 473d d246 d73d
00000130: 3e87 11be fd66 033e 516e 2fbe 8c54 ab3d
00000140: 931c 64be 78b3 2cbd d242 18be ee70 12bd
00000150: 0820 0e3e e9fa 67be abce 063b d448 2a3d
00000160: 5da2 29be a540 c9bc b28f e33d 321f 36be
00000170: 7a38 b33d afb8 20be 9792 043b 777d 33be
00000180: 62e8 72be dcf4 db3d 5870 acbd c441 0cbe
00000190: 1188 57be 8b6e dcbd 28dc 3bbe 20ff 353d
000001a0: eb65 50be d577 74bc 41e4 8fbd 2ca8 373d
000001b0: 084c 3dbe 0463 2bbe 3d67 e23d 27b9 8bbe
000001c0: e243 2cbe eca9 5abe 06b5 e13c 3480 d23d
000001d0: 2c37 073e 6790 3d3d 9e66 433e cd1a 1ebe
000001e0: ef5b d53c 0761 f1bd c466 1bbe 3dac 15be
000001f0: 53d4 0a3d 7585 063e 93b0 f43d b8db 48bd
00000200: 4195 a8be 6a9c 2fbe c96d 67bd 5768 8dbe
00000210: 15ee e0be 56a7 49bf c5c6 f33d 4f86 54bd
00000220: 0fd0 503e 6a05 de3c 6ac0 4a3e dd87 7d3e
00000230: 1d8d b4be 36bb 9abe 43fd a4bd b874 f6bd
00000240: 4f0a a3b9 1e57 8bbd a46e 273d 024a 80bd
00000250: 339e 5d3e a769 683e 5cb3 573e 76d2 62be
00000260: cf3f 23be d756 6ebe 6081 cf3d 0fe4 da3b
00000270: 7f1b 683e 369f 413e 7a1c 5dbd 75ee 52bf
00000280: 56f0 b43e 6878 66be 8e59 533e 54e1 74be
00000290: 05ae 8bbc 38a4 ca3e 1a0a 7e3e 0f2c db3d
000002a0: 02d0 69be 3aad 48bf e42a 283e 98e4 aabc
000002b0: 8fb4 90bf aef9 2dbd ca2f bd3e 6db6 a53c
000002c0: e468 d0bd 33cc a23e 0b60 a23e 0fd2 853e
000002d0: 6c2f 4ebe 153f 573d 0e51 41be af11 cf3d
000002e0: efef d23e 0718 dabd 835f dd3e 3e65 043e
000002f0: 04f2 533e f329 39bf 762f 263d 86c9 59be
00000300: c647 dabe a0cf 9ebe 710c 89be 655d e8bd
00000310: c7a7 873e 9466 053f 8341 bf3e e287 03bd
00000320: a18b 31be 1f33 a13e 55f5 5dbe 6fd9 41be
00000330: b4c9 d43e c870 a9bd 14b7 b2be bf9b cd3e
00000340: 9811 bc3e dd30 d2bd 8604 c03e db54 84be
00000350: 74be d73d 83ce 71be 1997 e13e fded 82be
00000360: af46 30be 7b63 4e3f d3d1 673d 808e b93e
00000370: ea13 fdbe e25b c8bd 26c6 8b3e 421a 173d
00000380: 0c73 c23d e8a3 b43d 1a21 b43e 7db3 21be
00000390: c3a5 bf3e bc25 63bc a712 38be 4e20 a63e
000003a0: 99a4 a93e 5172 ff3d 3478 3f3e 9afc 143d
000003b0: 545e e4be d959 7b3e c2df ccbe 3694 053e
000003c0: 6aa6 db3e f311 733e 17b2 0abf 4235 923e
000003d0: 85e5 113f 199a 9a3c 2974 8f3e 6cf7 2d3e
000003e0: 773b 47be 5373 94bf de8b d2bc 3e22 ed3c
000003f0: fce8 ad3d be9e 423e 1fcf 2dbe de3a 26bd

FC.2.bias f4 [128]
-0.10780203 0.11377201 0.56672496 -0.07865117 -0.10798461 0.21453016 -0.110656045 0.05140939
0.070394784 0.018468997 0.05764104 0.3032123 0.23432449 0.01012528 0.15990949 0.31676388
0.10321827 0.12373692 -0.087128535 0.0814263 -0.1447443 -0.0490559 0.3173327 0.0029991255
0.035234693 -0.005128878 -0.052330937 0.13249692 0.07391645 0.22236034 0.023746537 -0.16304132
-0.058721863 0.03314547 0.061435096 0.0463615 0.111037955 0.13508081 0.07841118 -0.19989581
0.0065293275 -0.10802512 -0.12710778 0.18176553 0.11500481 -0.07639079 0.115009114 0.03091199
0.29843426 -0.049462527 0.013765873 0.12880841 0.2810033 0.17473152 -0.13908976 0.0017571076
0.12673783 -0.0144020105 0.034742422 -0.025300682 0.11060128 -0.07104273 -0.087498665 -0.06587115
-0.05297302 0.06269092 -0.0027026797 -0.06081569 0.048477568 0.1979396 0.16236398 -0.259618
0.13510522 0.010023038 -0.02324723 -0.09498992 0.20953037 -0.200626 0.03290822 -0.40672293
0.064933605 -0.037447676 -0.14768697 -0.23938029 0.08877422 -0.21690162 -0.09458288 0.19815847
-0.063916214 -0.31214705 0.19148606 0.003571217 0.060565118 0.21723245 0.06218573 0.09499282
-0.098957404 0.05889305 -0.010780926 -0.03595525 0.16974574 0.12853007 0.096276015 0.18875471
0.13605307 -0.05993841 0.08594551 -0.124815606 -0.0030861343 -0.12901458 0.117337756 -0.10000031
0.21289289 -0.13082953 -0.11992754 0.033562463 0.12802331 -0.07383222 0.013871952 -0.10252137
0.04744795 0.02596779 -0.036001932 0.031115765 0.13930872 -0.0072886017 -0.09347976 -0.0009931526
00000000: 50c7 dcbd 4d01 e93d e314 113f dd13 a1bd
00000010: 0927 ddbd cbad 5b3e a39f e2bd a792 523d
00000020: 242b 903d 4b4c 973c 0319 6c3d a53e 9b3e
00000030: c2f2 6f3e 81e4 253c 50bf 233e e02e a23e
00000040: 1a64 d33d c869 fd3d 7270 b2bd d5c2 a63d
00000050: da37 14be d7ee 48bd 6f79 a23e fa8c 443b
00000060: 4152 103d 2610 a8bb f758 56bd 46ad 073e
00000070: 8261 973d 6eb2 633e 1988 c23c 4ef4 26be
00000080: 5686 70bd 8bc3 073d 5ea3 7b3d 8ee5 3d3d
00000090: de67 e33d a052 0a3e 0a96 a03d 7db1 4cbe
000000a0: f8f3 d53b 463c ddbd 8b28 02be be20 3a3e
000000b0: a487 eb3d c672 9cbd e689 eb3d 243b fd3c
000000c0: 60cc 983e 3899 4abd 428a 613c 5ae6 033e
000000d0: aadf 8f3e d2ec 323e 8c6d 0ebe bf4e e63a
000000e0: 90c7 013e 69f6 6bbc 124e 0e3d 6043 cfbc
000000f0: ed82 e23d da7e 91bd 8032 b3bd 74e7 86bd
00000100: 3dfa 58bd 1964 803d 711f 31bb df19 79bd
00000110: 6a90 463d aeb0 4a3e be42 263e a7ec 84be
00000120: 0659 0a3e ab37 243c fa70 bebc 138a c2bd
00000130: 218f 563e e770 4dbe c5ca 063d fd3d d0be
00000140: e9fb 843d bc62 19bd 413b 17be 1b20 75be
00000150: 42cf b53d 751b 5ebe abb4 c1bd 0eea 4a3e
00000160: 81e6 82bd bdd1 9fbe ec14 443e 140b 6a3b
00000170: 2113 783d 2f72 5e3e 77b6 7e3d 988b c23d
00000180: 2eaa cabd d739 713d 7ba2 30bc d045 13bd
00000190: d4d1 2d3e 639d 033e 5c2c c53d ea48 413e
000001a0: 7f51 0b3e fa81 75bd 3304 b03d 539f ffbd
000001b0: be40 4abb 661c 04be c74e f03d f6cc ccbd
000001c0: 9800 5a3e 2df8 05be 929c f5bd cb78 093d
000001d0: 8b18 033e 5935 97bd 2f47 633c b9f6 d1bd
000001e0: c858 423d 67ba d43c c376 13bd 7de6 fe3c
000001f0: f2a6 0e3e 39d5 eebb 5172 bfbd ac2c 82ba

FC.4.weight f4 [4, 128]
-0.16832009 0.42080563 0.68328476 -0.23376825 -0.005723496 0.53572255 -0.099884756 0.53254426
0.13132717 -0.22569683 0.14623553 0.24235101 1.092254 -0.57060033 -0.38470975 0.97196895
-0.57788783 -0.23814242 0.16595003 -0.21629332 -0.3753862 -0.31867293 0.08710467 -0.29107586
-0.060327217 0.93669975 -0.14592962 -0.0836007 0.27112064 0.4195288 -0.04048866 0.080820344
0.1620744 0.39813203 -0.056474674 -0.60551566 -0.08836132 0.0724569 0.72232467 0.24552386
-0.589745 0.12770288 0.11553946 0.33534408 0.43425542 -0.06669852 -0.4608884 -0.5390672
-0.14774117 0.08720885 -0.38472745 0.12921116 -0.22081847 -0.43980297 -0.46065935 -0.109620705
0.05300618 0.42825025 -0.1675811 -0.002160115 -0.52549857 0.07860966 -0.030570202 0.23110615
-0.011031731 0.53788656 0.15642355 0.21822089 -0.09567306 0.3688886 0.22845477 -0.16869825
-0.5749703 0.20200457 -0.16444762 0.14417414 -0.21015559 -0.1689927 0.37237537 -0.117096506
-0.3174832 -0.0630848 0.20149225 -0.047263086 -0.059988633 0.20033453 0.052687705 0.53606004
-0.11972509 0.34438676 -0.0959265 -0.4305079 -0.060553618 0.089377016 -0.6478402 -0.42212272
0.19659986 0.04755288 -0.40570018 0.37537202 0.024621636 0.56836015 -0.3107319 -0.3947562
-0.2863917 -0.24949522 0.50111884 -0.22667132 -0.24335867 -0.28912136 -0.30712286 0.18425432
0.21697971 -0.47243652 0.005218991 -0.43002316 0.21531138 -0.1813277 -0.55842865 -0.444262
-0.2638564 0.07018488 0.21102257 -0.31518504 -0.43787193 0.3900666 -0.7284195 0.5199072
0.09619498 0.510905 0.47213718 -0.09314628 -0.072702445 0.56363165 -0.15102959 0.62340045
-0.5587965 0.19328234 0.360575 0.49228677 0.6201493 -0.310325 -0.03089481 0.7699743
-0.3257351 0.1191528 -0.13951567 -0.3170787 -1.0097835 -0.6713518 0.32348755 -0.21532872
0.20427072 1.1527232 0.051508833 -0.6685918 0.581376 0.6063568 -0.17404956 0.07892655
-0.08271205 0.6129459 -0.30953744 -0.30929402 -0.0006714177 0.3243159 0.33112133 0.40876645
-0.34445605 0.49502864 -0.34248707 0.30614683 0.10369855 -0.48833856 -0.32961184 0.09926845
-0.37445712 0.30352247 -0.09865931 0.30827174 0.20169783 -0.29077372 -0.59869844 -0.26314974
-0.7593039 0.44952375 -0.2328826 0.058010213 -0.1883205 0.15328805 0.5221156 -0.20958345
-0.49447948 0.24973279 0.1657591 0.25395262 0.2068836 0.7058954 0.26552263 -1.0233521
-0.28523308 0.33580935 0.005344823 0.1624576 1.0377498 0.27791774 0.00032929154 0.45646045
-0.19549488 -0.12689205 0.55655044 0.46731672 0.27548987 0.51666 0.13465723 0.37722328
-0.03825094 0.517224 -0.1232069 -0.06525246 -0.29165494 0.27750337 -0.22478238 -0.35427892
-0.19234684 -0.1813034 -0.19715373 -0.0704729 -0.29524443 0.49639243 -0.78947157 -0.16176313
-0.6967742 0.23448204 0.6668863 -0.07407555 -0.13680731 0.088080406 -0.6181848 0.07969851
0.27723724 -0.44219673 -0.9870744 -0.47917983 0.14942782 0.083262675 -0.35807037 0.20206708
-0.56203365 0.1469445 0.3817612 -0.21431361 -0.07574926 0.22504137 -0.52163535 0.6647797
00000000: 1a5c 2cbe d673 d73e c0eb 2e3f f260 6fbe
00000010: 2a8c bbbb 1d25 093f 6190 ccbd d254 083f
00000020: a17a 063e 121d 67be c4be 153e dd2a 783e
00000030: fbce 8b3f dd12 12bf adf8 c4be f5d2 783f
00000040: 75f0 13bf 9bdb 73be ceee 293e ff7b 5dbe
00000050: 9f32 c0be 1929 a3be ef63 b23d e507 95be
00000060: ac19 77bd 8ecb 6f3f 936e 15be d836 abbd
00000070: 53d0 8a3e 7bcc d63e 70d7 25bd 2385 a53d
00000080: d5f6 253e f6d7 cb3e fd51 67bd 1303 1bbf
00000090: c8f6 b4bd 4864 943d 45ea 383f 9b6a 7b3e
000000a0: 87f9 16bf 8bc4 023e f49f ec3d 38b2 ab3e
000000b0: ba56 de3e 3c99 88bd 90f9 ebbe 4f00 0abf
000000c0: 7649 17be 8e9a b23d fffa c4be ee4f 043e
000000d0: 3d1e 62be db2d e1be 8bdb ebbe d280 e0bd
000000e0: 021d 593d 9e43 db3e 619a 2bbe b790 0dbb
000000f0: 1387 06bf 1afe a03d 5c6e fabc 17a7 6c3e
00000100: 6fbe 34bc efb2 093f 7f2d 203e 4c75 5f3e
00000110: 3df0 c3bd f7de bc3e 0cf0 693e 3cbf 2cbe
00000120: 4131 13bf 49da 4e3e f564 28be 63a2 133e
00000130: 0733 57be 6c0c 2dbe fca7 be3e 4bd0 efbd
00000140: 288d a2be 9b32 81bd fc53 4e3e f096 41bd
00000150: a4b6 75bd 7f24 4d3e 10cf 573d 3b3b 093f
00000160: 6e32 f5bd 7653 b03e 1d75 c4bd 886b dcbe
00000170: 1207 78bd 4c0b b73d dbd8 25bf 7820 d8be
00000180: 7951 493e cfc6 423d efb7 cfbe c330 c03e
00000190: 50b3 c93c 0d80 113f 4018 9fbe 7c1d cabe
000001a0: efa1 92be ad7b 7fbe 5349 003f 871c 68be
000001b0: 0433 79be b707 94be 353f 9dbe 2aad 3c3e
000001c0: ee2f 5e3e 33e3 f1be 1204 ab3b ff2b dcbe
000001d0: 967a 5c3e f8ad 39be 2ef5 0ebf 4f76 e3be
000001e0: 3018 87be 17bd 8f3d 4d16 583e ef5f a1be
000001f0: c030 e0be cfb6 c73e b379 3abf a318 053f
00000200: e001 c53d acca 023f f7bb f13e 7ac3 bebd
00000210: 05e5 94bd 2a4a 103f 80a7 1abe 2c97 1f3f
00000220: 4a0d 0fbf ceeb 453e 499d b83e 030d fc3e
00000230: 1bc2 1e3f ebe2 9ebe 1d17 fdbc 091d 453f
00000240: c0c6 a6be 6206 f43d 32dd 0ebe 2458 a2be
00000250: 9640 81bf b6dd 2bbf 29a0 a53e 227f 5cbe
00000260: 582c 513e 6f8c 933f edfa 523d d528 2bbf
00000270: 0fd5 143f 333a 1b3f 0c3a 32be 3ea4 a13d
00000280: ef64 a9bd 06ea 1c3f b17b 9ebe c95b 9ebe
00000290: 1402 30ba bc0c a63e bc88 a93e d649 d13e
000002a0: 8b5c b0be 6574 fd3e 775a afbe 47bf 9c3e
000002b0: e85f d43d 8307 fabe e2c2 a8be 424d cb3d
000002c0: d8b8 bfbe 4c67 9b3e e40d cabd cbd5 9d3e
000002d0: e089 4e3e 4be0 94be 4d44 19bf 90bb 86be
000002e0: be61 42bf fa27 e63e c778 6ebe 1e9c 6d3d
000002f0: 17d7 40be 8bf7 1c3e 5ea9 053f 0b9d 56be
00000300: 6a2c fdbe f4b9 7f3e c1bc 293e 1406 823e
00000310: 4bd9 533e 90b5 343f 95f2 873e 34fd 82bf
00000320: 120a 92be 34ef ab3e a023 af3b 495b 263e
00000330: fcd4 843f 3c4b 8e3e c3a4 ac39 2fb5 e93e
00000340: cf2f 48be fdef 01be 177a 0e3f 2344 ef3e
00000350: 020d 8d3e d443 043f 96e3 093e 6923 c13e
00000360: 05ad 1cbd cb68 043f e653 fcbd 15a3 85bd
00000370: cc53 95be ec14 8e3e 5a2d 66be 0c64 b5be
00000380: 92f6 44be 99a7 39be abe2 49be 1954 90bd
00000390: 472a 97be 2627 fe3e cf1a 4abf 3ca5 25be
000003a0: cb5f 32bf 0f1c 703e 10b9 2a3f ecb4 97bd
000003b0: 3717 0cbe 8063 b43d 5c41 1ebf f938 a33d
000003c0: 0af2 8d3e 9c67 e2be e8b0 7cbf 0f57 f5be
000003d0: 9b03 193e 9f85 aa3d 0055 b7be acea 4e3e
000003e0: 70e1 0fbf 9e78 163e 3476 c33e 0775 5bbe
000003f0: 6e22 9bbd 3f71 663e e589 05bf 012f 2a3f

FC.4.bias f4 [4]
0.090344325 0.05028541 0.10189366 -0.12624177
00000000: 7206 b93d 13f8 4d3d a0ad d03d 8645 01be
