DQN/weights-and-plot/final_weights_100.pth (torch, 75500 bytes, 6 tensors)

FC.0.weight f4 [128, 8]
00000000: 30db 33bd 742d 76bf 6100 3bbe c85e 06bf
00000010: 6458 70bd 0cd6 c7be c9ac 4e3f 063b 62be
00000020: 529e 33bc 9016 9cbf 364a 2dbf b35d 47be
00000030: e045 c43e eb93 3b3d 7bf1 0a3e 6d64 4e3f
00000040: 2651 313f add8 933e 8ca8 4c3f 73fd f73e
00000050: 9afe 07bf 74af 8e3e d73c 3bbf fcd1 1cbe
00000060: 6870 04bf 0109 7fbf fc93 38bf 4f0f 273d
00000070: c53a 9dbe 6acf a63e d5d6 843f 02f3 af3e
00000080: 62ca 2bbb 3e2b 52be 5428 91be 3c14 86be
00000090: f151 88bf 5210 10bf beb1 843f ef2e 813e
000000a0: 8dc3 c23d f325 ccbf e3e5 223f 4eaf a8be
000000b0: 1117 6b3e 15f9 d73d 07e7 9d3e 0fe0 4c3e
000000c0: 889b acbd 245f 52be 0ccc 223f 5610 54bf
000000d0: 863f 64bf 7adb ad3e d9d3 d63e e062 edbd
000000e0: b75e a5bd f2f1 543e cf80 3cbf 1716 52bf
000000f0: 4eb4 813e 89ab c33e 74a8 d2be 7c90 09bf
00000100: 341e 253f 224b 013f 1a11 1fbf b112 843e
00000110: d720 dcbe 5287 133f 4dee 8d3d d102 a43e
00000120: 4aa4 bd3e 3dbc 1a3f 54c8 473f 79f7 f1be
00000130: d5cc 233f f574 d0be baeb 593f 20a6 ba3d
00000140: 728b 05be ace2 6c3f 30c0 893e f714 7a3e
00000150: 660e 943e 7fa7 03bf a853 bc3e 9d15 0dbf
00000160: 5b0b 283f 7b2d febd 90af 253f c5bd 8bbe
00000170: b65f f3be 2579 593d c3dd 42bf 9057 1ebf
00000180: a1c6 3abf 6fac 6b3f 1fbc 163e 3633 e2bd
00000190: 7e1e 2abf b877 08bf 628d 6e3e f596 8fbe
000001a0: 5e8b 1cbf 0fbe 7dbf 7d30 d83e 53bb debe
000001b0: b2a0 383e a4f5 363f c000 123f e8e6 0bbf
000001c0: 2ccc 45be d95f b03d 055c 44bf ecdb dabe
000001d0: a3dc 0e3f 4ed7 473f b272 71bf 9223 e33e
000001e0: 122d 243f 1006 b2be f240 4d3f e6ab 533e
000001f0: a56a 393f c04f a73b 8749 943f 0116 383e
00000200: 7aae 5d3f 0dbe dbbe e2c3 a1be 3873 50bf
00000210: 073e 8dbd a26e 363f 520e 69bf 088c 693f
00000220: 31e0 513e f9d8 89bf f2cd 333f 419f 08be
00000230: 6548 483f 722b 6d3d 4a9d 4abf f780 0dbf
00000240: 2251 72bf e38b 5fbf 8c41 20bd fb00 503f
00000250: 728a 3cbe 89fd 863f c59d e4be 5fdb 223f
00000260: dd6d 2f3e f489 2b3f b635 943e 19c6 0d3f
00000270: ec71 40be 397f db3e 193c 1d3f 190b b63e
00000280: 78e2 02bf f1f4 7a3e d283 54bc 4f25 e5be
00000290: 13cc a0be 875d 72bf 2c47 1e3f fe7d 133b
000002a0: 741a 21bf 598d d4bd 002a 2cbe 178f 65bf
000002b0: 5d28 70bf 5189 27bf cecb 443f 5605 07bf
000002c0: 374d c4bd 9f97 c93e 124f 503f 8d22 5e3f
000002d0: 525f 28bf 825f ea3e 900a ddbe 0ea7 06bf
000002e0: c5b6 453f 2978 4ebd c095 5d3f cce4 89be
000002f0: f87d c3be 0ce6 20bf ef17 5abf 2a35 563f
00000300: 7ff5 36bf af2a 033f bd58 9f3e 8424 b7bc
00000310: ad95 1a3f 34f1 aebe e0d4 d3bc c168 583f
00000320: 9e3c 93bd c191 3cbf a348 43be 9dcd 503e
00000330: de89 1ebf d113 3ebf d96e 2dbf 6a3f 9dbc
00000340: e4b3 cabe 75ce 863e 0c82 d9be 6ec6 53bf
00000350: bd13 2f3f 0a5b 2d3f 8b28 62bf 3cd0 c83e
00000360: 0b95 233f 961d 8d3e 70ef aebe 8379 f0be
00000370: bfc0 4d3f 4235 bdbd 8395 85be a699 073f
00000380: 7b3c 473f 055d 483f e2b9 fb3e 40f6 6a3d
00000390: b8f2 273f da9d 4bbf b128 8b3f df21 abbe
000003a0: b934 ac3e 0336 2dbe 5ff0 afbd de43 3ebf
000003b0: 302a 22be c93b 27bf 8693 4fbe 0152 42bf
000003c0: d3a0 c53e 3596 613f aca5 00bf 4715 153f
000003d0: f710 993e a49b 3b3f 3be7 02bf ed35 03bf
000003e0: fe3a 053f d29b c6bf 4292 f2be d6ad 2c3e
000003f0: 23c2 e0be 910a 1d3f 6e74 f53e 8ae8 31bf
-0.043910205 -0.96163106 -0.18261863 -0.52488375 -0.058678046 -0.39030492 0.807324 -0.22092828
-0.0109630395 -1.2194386 -0.6769136 -0.19469337 0.3833456 0.045795362 0.1356868 0.8062199
0.6926445 0.28876248 0.7994468 0.48435554 -0.53122866 0.27868235 -0.7313971 -0.15314478
-0.5173402 -0.99623114 -0.72100806 0.040786084 -0.307089 0.3258012 1.0378062 0.34365088
-0.002621316 -0.20524308 -0.2835108 -0.26187313 -1.0650007 -0.562749 1.0366743 0.2523112
0.095099546 -1.5949081 0.6363203 -0.32946247 0.22958018 0.105455555 0.30840322 0.20007347
-0.08428103 -0.20544106 0.635926 -0.82837427 -0.8915943 0.3395651 0.41958502 -0.115911245
-0.08074706 0.2079542 -0.73634046 -0.82064956 0.25332874 0.38216808 -0.41144145 -0.5373609
0.6449921 0.5050527 -0.6213547 0.2579551 -0.42993805 0.5762836 0.06930218 0.320334
0.37039405 0.6044348 0.7804005 -0.4725912 0.63984424 -0.4071423 0.85125315 0.09113717
-0.13041475 0.92533374 0.2690444 0.2442206 0.28917235 -0.51427454 0.36782575 -0.55111104
0.6564233 -0.124110185 0.6472101 -0.2729322 -0.4753396 0.053094048 -0.7611963 -0.6185236
-0.72959334 0.9205999 0.147202 -0.11044924 -0.6645278 -0.53307676 0.23296121 -0.2804486
-0.6115016 -0.9911813 0.42224494 -0.43502292 0.1803005 0.7146857 0.57032394 -0.5464921
-0.19316167 0.086120315 -0.7670291 -0.42745912 0.55805415 0.78062904 -0.94315636 0.44363075
0.6413127 -0.3477025 0.80177224 0.20671043 0.7242835 0.0051059425 1.1584939 0.17977144
0.86594355 -0.42918435 -0.3159476 -0.8142581 -0.068965964 0.7126256 -0.91037476 0.91229296
0.20495678 -1.076934 0.7023612 -0.13342 0.78235465 0.05790276 -0.79146254 -0.5527491
-0.9465505 -0.87322825 -0.03912501 0.81251496 -0.18412188 1.0546123 -0.4465162 0.63615984
0.17131753 0.67007375 0.28947228 0.553804 -0.18793458 0.428705 0.61419827 0.35555342
-0.51126814 0.245075 -0.012970882 -0.44755027 -0.31405696 -0.9467396 0.6182735 0.0022505517
-0.6293099 -0.103785224 -0.16812897 -0.8967146 -0.9381159 -0.65443903 0.7687348 -0.52742517
-0.0958504 0.3937349 0.8137065 0.8677147 -0.6577045 0.45775992 -0.4317212 -0.52598655
0.7723201 -0.050407562 0.86556625 -0.2693237 -0.38182044 -0.62851024 -0.8519277 0.8367487
-0.7146835 0.51237005 0.3112239 -0.02235628 0.6038464 -0.34168398 -0.025858343 0.8453484
-0.07189296 -0.736599 -0.19070677 0.20390935 -0.6192912 -0.7424899 -0.67747265 -0.019195277
-0.3959037 0.2632939 -0.4248203 -0.82724655 0.68389493 0.6771704 -0.88343114 0.3922137
0.63899297 0.27561635 -0.3416705 -0.46967706 0.8037223 -0.09238674 -0.2609063 0.52968824
0.7782666 0.78266937 0.49165255 0.05736375 0.65604734 -0.7953774 1.0871793 -0.3342428
0.33633974 -0.16915135 -0.08590769 -0.7432231 -0.15836406 -0.653256 -0.2027112 -0.7590638
0.38599262 0.8811982 -0.50252795 0.5823559 0.29895756 0.73284364 -0.5113408 -0.5125416
0.5204314 -1.5516303 -0.4737721 0.16863188 -0.43898115 0.6134425 0.4794039 -0.6949545

FC.0.bias f4 [128]
00000000: c670 363d cee1 14be c9ba 7a3c 1c52 63bc
00000010: 6243 1bbe 7bc5 01bc cf6f bdbd 62fe 0e3b
00000020: 3db2 fe3e a28a 153d 7c93 843e 9ce1 20bd
00000030: 3f60 8dbe f70c 3e3d 9ae6 52be 2c06 363e
00000040: 5cff aabe 9172 8d3e 3020 aebe f261 dd3e
00000050: f38e de3e 6897 e33e d57f 153e fe0b a63e
00000060: d1ef f3ba b1b6 83bd 67dc 1abe 5275 32be
00000070: db03 d13e 73b9 d63c 83e5 243e a4d3 293e
00000080: fb65 de3d 29dc 4dbe eed3 6dbd 03c5 b13e
00000090: 846b ae3d 36f1 c63e 1096 d0be 3023 973e
000000a0: c198 b8be e450 2abd 1694 7f3e 6570 96bd
000000b0: 8508 a8be f586 ffbd 09f8 bc3e 26fc b43e
000000c0: 775b aabe a43a 8bbd 3bd6 2ebe 3c1d a5be
000000d0: 2106 f4bd ffee b33e 929f cabd b778 5a3a
000000e0: 04eb a13e 6057 85bc f0a3 9b3e 5cb0 513e
000000f0: 324d f23e 1c2c f83d 783b 5bbe 4ff7 a7be
00000100: c62f 7cbe 53bf 8a3e 34e0 4b3e ad76 293e
00000110: 6e8c 68be 3d78 6fbe 412e 043f 613c e43d
00000120: 6f26 0dbf 28d6 823d 5f3c c3bd a101 003c
00000130: 614b e03d 4745 723e ef77 79be 6a07 183e
00000140: a423 1fbe e140 733e 3843 943e 17bb b03e
00000150: b6fc 5d3e 5d38 033e 6d1e 7ebe 788d 75bd
00000160: bb49 a2be b088 183e a34d f33d 69ca 073f
00000170: 2354 8b3d 8157 5ebe 2fc3 de3b 31cc 96bd
00000180: 985d b43e f203 8f3e 5970 983e 9b51 163d
00000190: 0486 d9bd 2e91 ebbc 7cff 58be e1a4 e63d
000001a0: dede 023e 0e05 2e3e c80b 873e 74f5 253f
000001b0: a7ef f2be 8505 ca3e 261b 50be d58b 473e
000001c0: 74bf bd3e bf9e 943e 0477 d8bc 4545 be3e
000001d0: 8b56 a9be 5ae9 c13e 8150 e83e de5b b6bd
000001e0: 5ad9 273d fb15 c0bd 3f61 36be e3cc e7bd
000001f0: be2e 863c 2ddc 20be 4213 80be 4769 133e
0.044541143 -0.14539263 0.015303322 -0.013874557 -0.15162423 -0.007920618 -0.092498414 0.0021819104
0.4974536 0.036509164 0.25893772 -0.039277658 -0.27612492 0.046399083 -0.2059578 0.17775792
-0.3339795 0.2762647 -0.34008932 0.4323879 0.43468437 0.4445145 0.14599545 0.32431024
-0.00186109 -0.0643133 -0.1512314 -0.17427567 0.40823254 0.026211476 0.16103177 0.1658464
0.10859295 -0.20103516 -0.05806344 0.3472062 0.08516601 0.38855904 -0.4073949 0.29519033
-0.36054042 -0.04158105 0.24958834 -0.07345656 -0.32819 -0.12476913 0.36907986 0.35348624
-0.33272907 -0.06798294 -0.1707391 -0.32248867 -0.119152315 0.35143277 -0.09893717 0.0008334028
0.31624615 -0.016277015 0.30398512 0.20477432 0.4732452 0.12117788 -0.21409404 -0.3280587
-0.24627599 0.27099094 0.19909745 0.16549177 -0.2270982 -0.23385711 0.5163308 0.11144329
-0.5513677 0.06388503 -0.09532999 0.007812888 0.109518774 0.2365924 -0.24362157 0.14846578
-0.1554094 0.23755218 0.28957534 0.34517738 0.21678433 0.1281447 -0.24816294 -0.05994937
-0.31696877 0.14895892 0.118800424 0.5304323 0.06803157 -0.21713068 0.00679817 -0.07363165
0.35227656 0.27932698 0.29773214 0.03669892 -0.106212646 -0.02875575 -0.2119121 0.11261917
0.1278033 0.16994116 0.26376176 0.64827657 -0.47448465 0.39457336 -0.20322856 0.19486935
0.3706013 0.29027364 -0.026423939 0.37162223 -0.3307384 0.37873346 0.4537392 -0.08904241
0.040978767 -0.093791924 -0.17810534 -0.11318376 0.01637971 -0.1570899 -0.25014693 0.14395629

FC.2.weight f4 [128, 128]
00000000: 59e2 a8bd 8b9c 3bbe ba96 f03d 597f f63c
00000010: 18a7 7d3c 4fb0 51be 5e51 ee3d b330 39be
00000020: 3c20 ffbd 1a51 d03c 3fbe 153e 69f0 51be
00000030: a028 15be 9019 cc3d ac6e 3ebe 269e 30be
00000040: 262b 13bd c929 243d add5 c2bd 755c 093d
00000050: db50 413e 98c0 21be 085f bd3c 4c84 3abe
00000060: ab92 f83d b1e2 d6bd af1d 36bc fb3b f83d
00000070: 8253 a3bd bb9b 9abd a93b 3abd ecea 1f3d
00000080: 6edb 1f3e 5e2f 49be 9352 963d feac 923d
00000090: 5016 d33d 6d1b d4bd 3faa 743d d06d 47be
000000a0: 46c0 e9bd 0a80 df3d d8ac 66be 3320 5dbe
000000b0: 0ab1 413e ece2 61bd 1597 0fbd db64 0e3e
000000c0: 3535 003e d0dd 303e fc1c 253e 175a 3cbd
000000d0: da87 9dbd c074 093c 42ef cbbd f6f6 dc3c
000000e0: e0f3 0e3e 6602 47be 6077 41be 665f d13d
000000f0: f00e f93d 9dcb f53d a619 e3bd ff6b 3e3d
00000100: 9989 403e c9bb 03be 9826 5bbb dc37 e33c
00000110: 05bc 303e a377 9abd 9393 f2bd 845c 0f3d
00000120: beb5 65be 6874 1b3e 9dcc c93d 03f2 093e
00000130: e325 cebd 53f9 253e 3f57 0fbe ecb5 db3d
00000140: 931c 64be 4517 c2bc 55ae efbd 9653 aeba
00000150: cf20 273e 09a4 47be 6829 043d d448 2a3d
00000160: c5a6 26be a540 c9bc b28f e33d 8cd9 1bbe
00000170: 7a38 b33d afb8 20be 34c5 263b 4e97 13be
00000180: b302 54be 1cbe e83d 54fe 79bd 5452 0cbe
00000190: 5a93 57be 3891 9bbd 643c 1dbe 81b7 8c3d
000001a0: 1cc7 2fbe a81a 75bc efbc 1ebd a1da 9c3d
000001b0: b51c 39be 63d5 0cbe bc7c 113e c242 68be
000001c0: cc0b 21be 2340 3abe 3aad 723d a04a 1f3e
000001d0: ecbf 333e 12c7 9f3d 9e66 433e 1fad 15be
000001e0: 48fd 903d 0761 f1bd aca2 18be 7e8e 2abe
000001f0: 6858 863d 9f6f 273e 4b37 153e b8db 48bd
00000200: ce76 cfbd 5976 1a3d 9497 14be ed17 453e
00000210: 2db8 63be 70af 5abd b543 59bd 2d8c 0abe
00000220: 4d8b 293e ffeb 7fbe bdcb d33d 09f1 883e
00000230: eda2 2ebe c336 31be 1b9c 65be 6620 21be
00000240: 5198 15bd 10b2 44bc 3882 653e 6bd5 71bd
00000250: bb79 ea3d 44da 4e3e 7050 bf3d 08c5 34be
00000260: abc8 96be 5210 58bc 255d f3bd 220f 83be
00000270: 06b7 c03d a946 8e3c 521e e3bd baf5 e4bd
00000280: b0c1 443e a55a cfbd d930 0e3e b303 2dbe
00000290: 597b ac3d ed7d b73e aa1d d43d 1194 debc
000002a0: 8646 52be 8d8a acbe 4b53 f83d 82a3 233e
000002b0: 265a d63d b9ff d03d e0e2 623e 34c4 633c
000002c0: 4015 163e 0fdf 103e ec65 943e 7310 11bc
000002d0: ef72 5fbd c887 8c3d 849e b9bd 4fcc 793d
000002e0: 4744 3d3e df0f 093d cc05 ab3e 4027 36bd
000002f0: 7702 183e 72e3 87be 99c8 4fbd fb5d f7bd
00000300: 9439 94bd f0e0 07be 3b7b 6abe 22eb 1dbd
00000310: 1fc5 5a3d 469f 473e 52f4 243e 790d 99bd
00000320: d9aa a2bd 316d 373d 24a2 a73c 1ee8 9abd
00000330: d805 2f3e d30c 40be d3c7 20be d1f2 ad3e
00000340: 2d9c 8c3e 0fec 51be 4807 9a3e dc3f a8bd
00000350: 8bac 0b3e 13a8 a5bd 4983 8b3e 2d6c 9bbd
00000360: 8984 4abe 8587 783e 02e1 ca3d 48cd 923e
00000370: c628 47be 0275 adbd 52d7 cc3d 2e85 013d
00000380: 8d73 be3b 07f5 173d 8b0e 083e e609 173d
00000390: eed5 363e d519 32bd 9d94 013e 2f78 253e
000003a0: a802 8a3e eebf 143e 7624 fc3d f1e0 593e
000003b0: 06a1 a2be 4ee3 393e f31d 79be d754 a23c
000003c0: 2b83 913e 105a 1e3e 0320 4abe 658d 093e
000003d0: 7590 b23e b4a4 d53c dce6 dc3d adcc b0bd
000003e0: 5041 4fbd bcbf a6be f6d2 3fbd 03b0 373e
000003f0: 3c89 12be bebe 10bb 9656 e8bd da0d 18be
-0.082462974 -0.18321435 0.11747499 0.030090021 0.015481733 -0.20477413 0.11636613 -0.18084984
-0.1245732 0.025429297 0.14623354 -0.20501865 -0.14566278 0.09965813 -0.18596905 -0.17247829
-0.03592982 0.040078912 -0.09513412 0.03353544 0.188785 -0.15796125 0.023116603 -0.1821453
0.1213735 -0.10492457 -0.011115476 0.12120815 -0.07974912 -0.075492345 -0.045467053 0.0390424
0.1561105 -0.19646975 0.073399685 0.07161902 0.1030699 -0.103567936 0.05973267 -0.19475484
-0.114136264 0.109130934 -0.22526872 -0.21594314 0.18915191 -0.05514805 -0.035056192 0.13905661
0.12520297 0.17272115 0.16124338 -0.045984354 -0.07691927 0.008389652 -0.09957744 0.026973229
0.13960218 -0.19434509 -0.18893194 0.10223274 0.12161052 0.12001727 -0.110888764 0.04648971
0.1880249 -0.12864603 -0.0033439752 0.027736597 0.17259224 -0.0754235 -0.11844554 0.03500034
-0.2243261 0.15181124 0.0985348 0.13471226 -0.1006582 0.16208391 -0.13998125 0.10728058
-0.22276525 -0.023692736 -0.11703173 -0.0013300057 0.16321109 -0.19496168 0.03226605 0.04157336
-0.16274555 -0.024566958 0.11111392 -0.15219706 0.087510064 -0.15695451 0.0025447132 -0.14413187
-0.20704155 0.113643855 -0.06103356 -0.1370328 -0.21052304 -0.07596058 -0.15355068 0.06870938
-0.17165798 -0.014959969 -0.0387544 0.07658888 -0.18077357 -0.13753276 0.14207739 -0.22681716
-0.15727156 -0.18188529 0.059247233 0.15555811 0.17553681 0.078016415 0.19082114 -0.14616822
0.070795596 -0.117860846 -0.14905804 -0.16655919 0.06559831 0.16351174 0.14571874 -0.049037665
-0.10130082 0.03771052 -0.14510947 0.19247408 -0.22238226 -0.053389966 -0.053043086 -0.13530035
0.16557045 -0.24992369 0.10341594 0.26746395 -0.17054339 -0.17306046 -0.22422831 -0.15735015
-0.036522213 -0.012005344 0.22412956 -0.05904142 0.114489995 0.20200449 0.09341514 -0.17653286
-0.29449973 -0.013187485 -0.11883 -0.25597483 0.09409909 0.017367678 -0.110897675 -0.11179681
0.19214511 -0.10124711 0.13885821 -0.16895942 0.08421964 0.3583826 0.103572205 -0.027170213
-0.20534715 -0.33699456 0.12125262 0.15980342 0.10466413 0.10205025 0.22156858 0.013901759
0.14656544 0.1414759 0.2898401 -0.008854019 -0.05455297 0.06861836 -0.090634376 0.06098586
0.18483077 0.0334624 0.3340286 -0.044471025 0.1484469 -0.26540715 -0.050728414 -0.12078472
-0.07237545 -0.132694 -0.22898571 -0.03855432 0.053410646 0.19494352 0.16108826 -0.07473273
-0.07942743 0.044781867 0.020463057 -0.07563804 0.17092073 -0.18754892 -0.15701227 0.33974317
0.27462903 -0.20500205 0.3008368 -0.08215305 0.13640039 -0.08088698 0.272486 -0.07588992
-0.1977712 0.24270447 0.09906198 0.28672242 -0.19449148 -0.08469583 0.100020066 0.03162115
0.0058121146 0.03709891 0.13286798 0.036874674 0.17855045 -0.043481667 0.12654348 0.16159128
0.26955152 0.1452634 0.12311642 0.21277215 -0.31763476 0.18153116 -0.24327831 0.019815845
0.28420386 0.15464044 -0.19738774 0.13432844 0.34875837 0.026079513 0.107862204 -0.08632789
-0.050599396 -0.32568157 -0.046832047 0.17938237 -0.14310163 -0.0022086347 -0.1134464 -0.14849034

FC.2.bias f4 [128]
00000000: 58f4 94bd e666 763c 7136 2e3d 05b9 c4bc
00000010: 0927 ddbd 075f 2a3e 0c82 a2bd e571 ca3d
00000020: 434f 46bd 58bb 503d 7be4 e93c 30b4 203e
00000030: 41f3 0d3d 3904 56bd e6ba a23c 3092 763c
00000040: 2283 5f3c 7638 1a3e 0ec7 6bbd c8e7 e83c
00000050: c54b 3ebd 1eb6 b7bd 2a46 1d3e 2204 65bd
00000060: ea5a 193e 6c2f 24bd fa2f 943d 1647 78bb
00000070: 514f fc3b 53da 383e 1988 c23c 0092 02be
00000080: 4ebf 9bbd 9dce bc3c 1585 c1bc 5a8d a5bd
00000090: 10b8 0a3e 2548 913d db3a d8bd d945 ddbd
000000a0: 1fd5 9bbc bec5 183c 14c4 6dbd f33b cc3d
000000b0: 970e a53d 2e5e 83bb f490 803d 6ac7 29bc
000000c0: 0b5e 5b3d b9dc 5d3c 5094 8cbd 86e8 123e
000000d0: 26f8 2d3e c3cc b73d 4986 e0bd 27a7 6ebd
000000e0: 0113 753d 61e8 8cbd 4f73 183c 6043 cfbc
000000f0: 23ec be3c 4d12 2cbd 119a ac3c 7473 303c
00000100: 77a5 16bd 5667 473d 711f 31bb 52e8 8bbd
00000110: a3ee 2f3c f821 ee3d 4d64 9f3d b200 2ebe
00000120: 481f da3d dd33 933d fa70 bebc 0ffe 81bd
00000130: 43cd a43d aa5e 4cbd f41c 933d bef5 15be
00000140: e42f 403d bc62 19bd 7713 723a ddbe 2cbd
00000150: 4bfc ee3c b9c9 60bd 122d d0bd 295e 4d3a
00000160: f0cb ce3b 4461 c5bd 1d91 653d a63d be3c
00000170: 15db 72bc 8782 393e 1c2c 6a3d 46b4 823d
00000180: 0bf9 8abd c9e8 8e3c b8b3 e93c 5900 c93b
00000190: a20d 0e3d fdf8 943d 0d62 13bd 0a51 e33d
000001a0: 96e9 3e3d 019d 453d 01ae 123b c130 eebc
000001b0: c2aa 36bd 7fbd febc 8c7a 353d d170 aabd
000001c0: c0da f23d 22f2 35bd be23 10be 743e fb3b
000001d0: f41a 373e 5935 97bd a96a fabc f3e4 823c
000001e0: dd9b 253c 306e 2a3c 57f1 17bd 6913 19bd
000001f0: 6bb5 25bd cb4e fabc cff8 d3bd ae9a 73bd
-0.07273167 0.015039181 0.042532388 -0.024014005 -0.10798461 0.16637813 -0.07934961 0.09885005
-0.048415434 0.050959915 0.02855133 0.15693736 0.034655813 -0.05225012 0.01986451 0.015049502
0.013642104 0.150606 -0.05756288 0.028430834 -0.04645898 -0.08970283 0.15358797 -0.055912144
0.14976087 -0.040084288 0.07235713 -0.0037884167 0.007699885 0.18052034 0.023746537 -0.12751007
-0.07604848 0.02304774 -0.023623029 -0.08083601 0.13546777 0.070938386 -0.10558101 -0.10804338
-0.019022522 0.009324489 -0.058048323 0.09972372 0.080594234 -0.00400903 0.062776476 -0.010362485
0.053556483 0.013541394 -0.06864226 0.14346513 0.16989192 0.08974602 -0.10963113 -0.058264878
0.059832577 -0.0688026 0.009304835 -0.025300682 0.023305958 -0.04200964 0.021069558 0.010769714
-0.036778893 0.048682533 -0.0027026797 -0.06831421 0.010738048 0.11627573 0.07782803 -0.16992453
0.10650498 0.071876265 -0.02324723 -0.06347286 0.08046963 -0.049894966 0.07183257 -0.14644524
0.046920672 -0.037447676 0.0009234468 -0.04217421 0.029173037 -0.054879878 -0.101648465 0.00078341604
0.0063109323 -0.096376926 0.056046594 0.023222756 -0.014822741 0.18116198 0.057170972 0.06382041
-0.067857824 0.017444985 0.02852808 0.0061340746 0.03468097 0.07274053 -0.03598218 0.11099441
0.046609484 0.048245434 0.0022381546 -0.029075982 -0.04459644 -0.031096218 0.044306323 -0.08322299
0.118581295 -0.04442037 -0.14076135 0.007667357 0.17881376 -0.07383222 -0.030568438 0.015978312
0.0101079615 0.010402247 -0.037095394 -0.037372027 -0.040456217 -0.03055515 -0.10350191 -0.059473686

FC.4.weight f4 [4, 128]
00000000: 1a5c 2cbe a266 2d3e 2b6b 64bc e29f 37be
00000010: 2a8c bbbb 8a3e a43e 6190 ccbd 136a 9b3e
00000020: fa27 2c3e 121d 67be d208 a93d 6b8c 0cbe
00000030: 6d03 643e 53bf 03bf d9c6 b5be ee41 05be
00000040: 0355 a2be 11e9 9bbe ceee 293e 965f 4fbd
00000050: 1048 d4bd 5ca8 98be 317d 4abe eaa8 48be
00000060: 9ecc eebd 0f86 c23e e646 c5bd beb1 263d
00000070: ec2b cf3d 7223 4c3e 70d7 25bd 07d9 1b3e
00000080: 96d1 8e3e dfdf ea3e e981 823d 08c6 82be
00000090: c9cc dfbd 60b3 bdbd b76b 973e c212 1f3e
000000a0: 4807 f7be ac12 283d af23 b83e 6f70 063e
000000b0: cba0 ae3e 269c 933d 29e1 b8be b414 c7be
000000c0: 9170 b03c 5c15 e53d 773c 59be c79f 143e
000000d0: fd7a a2be 8dc8 abbe b3e2 e7bd dd68 27bc
000000e0: 4d13 983e 7c08 803e c44a 44bd b790 0dbb
000000f0: f7e1 d5be 1afe a03d b8e0 cdbd 8542 b93e
00000100: 489b 283e 83bf b23e 7f2d 203e b5d4 933e
00000110: ab7f 463d 6b6e d63d d5dd 80bb b61f 143e
00000120: 3bb5 dabe e6e4 8e3d f564 28be 63a2 133e
00000130: 27ef 00be 31fd 92be 7efe bc3e 2798 80bd
00000140: 1769 41be 9b32 81bd 3cda 4e3e c159 30bd
00000150: 28f1 7fbe 1147 14bd 4d2e 063e ca0e 183e
00000160: 55d1 1abd 0c09 f93d 4478 f63c c95c 83be
00000170: 6333 e7ba 115f 64bd 08a0 dfbe fd30 c7be
00000180: 7951 493e dd87 993d 8e86 c4be 6eb6 933e
00000190: 4eee 173e 2ee9 be3e eef3 92bd c605 9cbe
000001a0: 79ff f6bd 2efb b6be 82bf 9f3e 23d0 c3bd
000001b0: a9a8 e8bd 65ba 9cbe 6af1 59be 32fc 593e
000001c0: 8faf 27bc 24ba a4be de5b 3b3e 9cad 78be
000001d0: c135 643e f8ad 39be e0ce f8be e98e cbbe
000001e0: d4bb 4dbe 598f 92bc 2aa3 2abc ddb4 57be
000001f0: 0c42 a6be 19c0 d73d cd30 a0be 8aba b63e
00000200: 93e2 023e 629d 553e a3a8 8cbd cd3e a5bc
00000210: 05e5 94bd 15b0 623e 80a7 1abe e12d 2a3e
00000220: f342 8fbe d4ed 453e 384d 963d 3077 9f3e
00000230: 02d8 fa3d 493f 51be 8d76 43bc 368a 28be
00000240: 2685 7fbe 2d0a 373e 32dd 0ebe fee4 47be
00000250: 19e4 abbe cad7 dfbe 4fd8 723e 47ca f8bd
00000260: 8f86 8b3e c35d e93e 0c66 123e 94aa 97be
00000270: 8971 a03e 564d 743e 0c3a 32be 49d0 43bd
00000280: 698c 88bd ede9 413e f1c5 87be 8873 11be
00000290: 9f35 893d 9c44 3a3e 25dd f03c d9eb 863e
000002a0: 27c6 2abe 8821 9d3d 906d 00be 23f5 e1bc
000002b0: 3300 29be 08d3 adbe b6bd 86be 0919 903d
000002c0: 6a15 923d e5d8 5b3e 4dbb 323d 26be a03e
000002d0: 0590 523e dab0 42be c7e4 97be 9818 64be
000002e0: 40c8 9bbe 18ec 543e abfd 43be 1e9c 6d3d
000002f0: 3d43 cfbc 8307 313e 5160 ac3e 285b acbe
00000300: 4616 abbe 0f11 02be c1bc 293e 2b4e 903e
00000310: 2560 373e a870 bc3e 8316 ea3d e880 b1be
00000320: a9f7 2bbe 531a a8bd a023 af3b 495b 263e
00000330: 1838 ba3e 3485 363e 45f9 30be 9da1 c13d
00000340: 8fb2 13be fdef 01be 1b6f c43e 4d33 6d3e
00000350: 6c0d 7e3e c63a 933e 8c78 f13d 8969 3b3d
00000360: 82b4 4b3d 965a af3e 6b47 cbbd 095d c43c
00000370: 6d98 72be 6dfc 6a3e 6bb6 b3bd 2781 0abe
00000380: 92f6 44be e5bc abbe ecbe 47be b316 66be
00000390: 6ee4 c4bc c5af fd3d d6c8 a0be 57b2 87bd
000003a0: 76aa 86be 8695 663e 8a8e ab3e 5d9e 413d
000003b0: 42e4 30bc 235f 403e 649c 92be a76d 583d
000003c0: 8b1e 2b3e 0023 42be d7f9 87be b0de 86be
000003d0: 15ab a5bd 9f85 aa3d fefb 54be 07f4 173e
000003e0: f8ee aabe fbcd 86bd f64b 9e3e caa0 febd
000003f0: cafc 16be ff47 1a3e 3adb 95be 4915 dd3e
-0.16832009 0.16933683 -0.013941566 -0.17932084 -0.005723496 0.32078964 -0.099884756 0.30354366
0.16812125 -0.22569683 0.082536355 -0.1372544 0.22266932 -0.5146381 -0.3550327 -0.13013431
-0.31705484 -0.30451253 0.16595003 -0.050628267 -0.10365307 -0.29815948 -0.19774319 -0.19595686
-0.116601214 0.37992904 -0.096326634 0.040696852 0.10115799 0.19935396 -0.04048866 0.15219508
0.27894276 0.45873925 0.06372435 -0.2554171 -0.109277315 -0.09262729 0.29574367 0.155345
-0.48247743 0.041033432 0.35964724 0.13128828 0.3410705 0.07207517 -0.36109284 -0.38882983
0.02153805 0.111857146 -0.21214472 0.14514075 -0.31734458 -0.33551446 -0.11322536 -0.010217872
0.29702225 0.25006473 -0.047922865 -0.002160115 -0.4177396 0.07860966 -0.10052627 0.36183563
0.16465485 0.34911737 0.15642355 0.2887322 0.048461597 0.10470279 -0.0039326944 0.14465222
-0.42716393 0.06977253 -0.16444762 0.14417414 -0.1259123 -0.28708795 0.36912912 -0.06279021
-0.18887745 -0.0630848 0.20200437 -0.043054346 -0.24994338 -0.036200587 0.131036 0.14849392
-0.03779729 0.12159929 0.030086644 -0.25656727 -0.0017639216 -0.055754725 -0.43676782 -0.38904563
0.19659986 0.07496617 -0.38383907 0.2885012 0.14837 0.37287277 -0.07175432 -0.30473155
-0.12060446 -0.3573851 0.31200796 -0.09561183 -0.11360294 -0.30610958 -0.21283498 0.21287611
-0.0102347275 -0.32173264 0.18296763 -0.24284977 0.2228613 -0.1813277 -0.48595333 -0.3975747
-0.20091182 -0.01789062 -0.010414878 -0.21065088 -0.32472265 0.105346866 -0.31287232 0.35689193
0.12781744 0.20860818 -0.068681024 -0.020171547 -0.072702445 0.22137482 -0.15102959 0.16619064
-0.27980766 0.19329005 0.07338947 0.3114562 0.122482315 -0.20434298 -0.01193012 -0.16458973
-0.24953136 0.17874976 -0.13951567 -0.19520947 -0.33572462 -0.4371932 0.23715328 -0.12147956
0.27251098 0.45579347 0.1429674 -0.29622328 0.3133662 0.23857626 -0.17404956 -0.047806058
-0.06667406 0.18936892 -0.26518205 -0.14204228 0.066996805 0.18190235 0.029402325 0.26351812
-0.16677152 0.07672411 -0.12541795 -0.02758271 -0.16503982 -0.33950067 -0.26316613 0.07036025
0.07132991 0.21469457 0.043635655 0.31395072 0.20562752 -0.19012776 -0.2966673 -0.22275007
-0.30426216 0.20793188 -0.19139735 0.058010213 -0.025300616 0.17288022 0.33667234 -0.33663297
-0.3341543 -0.1270182 0.1657591 0.28184637 0.1790777 0.368047 0.11430075 -0.3466866
-0.16793694 -0.08208146 0.005344823 0.1624576 0.3637092 0.1782425 -0.17282589 0.094546534
-0.14423583 -0.12689205 0.38366017 0.23164101 0.24809808 0.28755778 0.117905706 0.045754943
0.049732693 0.342488 -0.09925731 0.023970144 -0.23690958 0.22947855 -0.08775028 -0.1352583
-0.19234684 -0.33542553 -0.19506425 -0.22469597 -0.024034705 0.12387041 -0.31403226 -0.066258125
-0.26301926 0.22517976 0.33507186 0.047270168 -0.010796608 0.18786292 -0.28634942 0.052838948
0.1671087 -0.18958664 -0.265578 -0.26341772 -0.08089272 0.083262675 -0.20799252 0.14839183
-0.33385444 -0.065822564 0.3091733 -0.12433012 -0.14744869 0.15066527 -0.2926882 0.43180302

FC.4.bias f4 [4]
00000000: e12a 4e3d d55a 8b3c 44ec 653d 14b7 0cbd
0.05033386 0.017011086 0.056133524 -0.034354284
