DQN/weights-and-plot/final_weights_500.pth (torch, 75500 bytes, 6 tensors)

FC.0.weight f4 [128, 8]
0.37041518 -3.9266396 0.14079964 -0.6429921 -0.19710726 -0.17244251 0.794232 -0.30896533
0.010104166 -3.8705068 -0.3849883 -0.66618836 0.25241783 0.0663729 0.116103135 0.6721712
0.92798764 0.32583603 1.3080118 0.540963 -0.471386 0.14200805 -0.4306968 -0.44585314
-0.7185115 -3.9974263 -0.7266963 -0.18795314 -0.20548786 0.41106245 0.7678727 0.42406297
-0.32158613 -0.23053509 -0.56140554 0.021922052 -1.1974086 -0.8352005 0.8389072 -0.003615696
0.5204807 -4.8590903 0.38982272 -0.52808124 0.044459045 0.1194976 0.08296713 0.039614666
-0.42409542 -0.005791195 0.631768 -1.0044135 -1.03573 0.35291183 0.21375668 0.18444192
-0.023480602 0.13602765 -1.6399288 -0.83392435 0.23359738 -0.051925726 -0.5221927 -0.14133927
1.114186 0.2775563 -0.92747486 0.7823693 -0.4903545 0.5737945 -0.08172448 0.32920757
0.36432615 0.7205383 1.0047253 -0.8063379 0.99319893 -0.22426066 0.7289311 -0.15140526
0.027910564 0.69421756 0.060574234 0.19235033 0.36924258 -0.53017485 0.5456661 -0.82683706
0.80051476 0.11279115 0.56811464 -0.34268332 -0.49027717 -0.07430059 -0.84863526 -1.0215987
-0.5622811 0.5554971 0.041917164 -0.12048119 -0.93624294 -0.93233764 0.35442698 -0.07213959
-0.7384196 -1.8450053 0.288097 -0.6080982 0.21546404 0.60692745 0.52112806 -0.48859417
0.013543599 0.094512925 -0.9028724 -0.6796635 0.8891647 0.870941 -0.64095163 0.52437973
0.5310479 -0.2888617 0.99850494 0.15353185 0.7341512 -0.07824868 1.0808629 0.16053422
0.70000756 -1.4567963 -0.5238262 -0.73339355 0.16572009 0.7258749 -0.9019614 1.0696697
0.12304652 -2.3657718 0.60576093 -0.2545388 0.5924129 0.21747908 -0.6727279 -0.39152995
-0.8642737 -1.1413704 -0.030985028 0.4810763 -0.18227033 1.2938914 -0.7767734 0.52344996
0.30772603 0.27803853 0.4686556 0.6731762 -0.047805183 0.5268267 0.366153 0.5403479
-0.258073 0.37829986 -0.021022968 -0.5558156 -0.070903994 -0.7920788 0.5896794 -0.2289121
-0.17988609 -0.020128006 -0.5134462 -0.6948592 -1.3850604 -0.59952897 0.5284681 -0.74612707
0.21893096 0.19252083 1.3247101 1.0690483 -0.6733246 0.54708445 -0.6002508 -0.87717384
0.68761134 -0.2007697 0.9236746 -0.21533294 -0.7388975 -0.48015684 -0.9098004 0.71038747
-0.7130575 0.43319058 0.22698283 -0.024191799 0.7810773 -0.18720116 -0.103383854 0.8641656
-0.20013784 -0.4102275 -0.36367866 0.050708022 -0.878023 -0.95458907 -1.0744357 -0.13603945
-0.47460225 0.498234 -0.3434721 -0.91569567 1.1680559 0.82509965 -0.8178499 0.36534965
0.804629 0.26499766 -0.14070892 -0.4981893 1.6375858 -0.034396213 0.36141568 0.47039416
0.8299285 0.6746812 0.65000176 -0.012467846 0.73229676 -0.7244967 1.1091815 -0.36154586
0.8154645 0.29438487 -0.25114048 -0.8826446 -0.10754918 -0.64890164 0.03899371 -0.85155046
0.89421546 1.0013189 -0.33889335 0.33777964 0.05345757 0.89995146 -0.5250139 -0.2081129
0.7070516 -5.537753 -0.5817844 0.04916184 -0.3900031 0.38602147 0.107527725 -1.2283782
00000000: 0fa7 bd3e 104e 7bc0 c82d 103e 219b 24bf
00000010: 7cd6 49be c594 30be ca52 4b3f b430 9ebe
00000020: f28b 253c 62b6 77c0 301d c5be 528b 2abf
00000030: e93c 813e 84ee 873d 7bc7 ed3d 6913 2c3f
00000040: 9990 6d3f fbd3 a63e ee6c a73f 8d7c 0a3f
00000050: 8159 f1be 8f6a 113e 4a84 dcbe dd46 e4be
00000060: 5ff0 37bf d5d5 7fc0 c508 3abf ca76 40be
00000070: 696b 52be c776 d23e 4e93 443f c81e d93e
00000080: f0a6 a4be 6411 6cbe 46b8 0fbf e095 b33c
00000090: af44 99bf b3cf 55bf 9fc2 563f 50f5 6cbb
000000a0: 393e 053f ab7d 9bc0 d896 c73e 5530 07bf
000000b0: b01a 363d 28bb f43d acea a93d fd42 223d
000000c0: 0923 d9be 11c4 bdbb 8cbb 213f 9f90 80bf
000000d0: cd92 84bf dcb0 b43e 08e3 5a3e 58de 3c3e
000000e0: 645a c0bc d54a 0b3e 30e9 d1bf 117c 55bf
000000f0: 2734 6f3e 12b0 54bd 6cae 05bf 3ebb 10be
00000100: a69d 8e3f dc1b 8e3e fe6e 6dbf 5b49 483f
00000110: bf0f fbbe 32e4 123f 2a5f a7bd e58d a83e
00000120: f588 ba3e 3375 383f d79a 803f 296c 4ebf
00000130: 4942 7e3f 96a4 65be 3b9b 3a3f fb09 1bbe
00000140: b2a4 e43c 3eb8 313f b01c 783d 7cf7 443e
00000150: 5d0d bd3e 8ab9 07bf c6b0 0b3f 98ab 53bf
00000160: 89ee 4c3f 0cff e63d f66f 113f 3074 afbe
00000170: 9c05 fbbe e82a 98bd 2940 59bf bfc3 82bf
00000180: a7f1 0fbf 0f35 0e3f 55b1 2b3d d8be f6bd
00000190: 9ead 6fbf aead 6ebf 7477 b53e ecbd 93bd
000001a0: 1109 3dbf 2229 ecbf 7381 933e 53ac 1bbf
000001b0: 9ba2 5c3e 995f 1b3f a668 053f 0429 fabe
000001c0: f9e5 5d3c fe8f c13d a522 67bf 6dfe 2dbf
000001d0: 4ca0 633f fdf5 5e3f 6815 24bf c03d 063f
000001e0: c1f2 073f aee5 93be 059e 7f3f 7437 1d3e
000001f0: 55f1 3b3f d840 a0bd b759 8a3f 1563 243e
00000200: b233 333f 4d78 babf 7919 06bf aebf 3bbf
00000210: 87b2 293e f0d2 393f f1e6 66bf f0ea 883f
00000220: d0ff fb3d ce68 17c0 2613 1b3f e952 82be
00000230: 5fa8 173f d6b2 5e3e e537 2cbf 9d76 c8be
00000240: 0b41 5dbf 6d18 92bf 50d4 fdbc a24f f63e
00000250: 13a5 3abe 3c9e a53f 9fda 46bf d100 063f
00000260: 448e 9d3e 115b 8e3e a0f3 ef3e 4755 2c3f
00000270: 5ecf 43bd 1dde 063f 6878 bb3e 3d54 0a3f
00000280: 2522 84be 85b0 c13e 5c38 acbc ee49 0ebf
00000290: 1d36 91bd adc5 4abf 3bf5 163f ef67 6abe
000002a0: 0f34 38be 7de3 a4bc 3671 03bf 4be2 31bf
000002b0: a949 b1bf bb7a 19bf af49 073f 2f02 3fbf
000002c0: 702f 603e 2e24 453e 1a90 a93f 93d6 883f
000002d0: 005f 2cbf ba0d 0c3f 09aa 19bf 778e 60bf
000002e0: 4c07 303f 9296 4dbe f075 6c3f 3d80 5cbe
000002f0: 6328 3dbf 1ed7 f5be aee8 68bf f4db 353f
00000300: f08a 36bf 28cb dd3e 306e 683e e12d c6bc
00000310: aff4 473f a9b1 3fbe eaba d3bd f539 5d3f
00000320: eff0 4cbe 5709 d2be 1734 babe 37b3 4f3d
00000330: 1ec6 60bf f35f 74bf 1c87 89bf ed4d 0bbe
00000340: 11ff f2be 8718 ff3e 93db afbe 086b 6abf
00000350: db82 953f bb39 533f 9c5e 51bf 1c0f bb3e
00000360: 2bfc 4d3f c6ad 873e 0016 10be ab12 ffbe
00000370: 699c d13f 0be3 0cbd 7a0b b93e 81d7 f03e
00000380: 3276 543f e8b7 2c3f 8466 263f f045 4cbc
00000390: cd77 3b3f 9e78 39bf a9f9 8d3f 8a1c b9be
000003a0: 48c2 503f 9db9 963e 7c95 80be fff4 61bf
000003b0: bf42 dcbd 6b1e 26bf deb7 1f3d 36ff 59bf
000003c0: 4eeb 643f 382b 803f 6e83 adbe 74f1 ac3e
000003d0: 53f6 5a3d 3863 663f 5067 06bf 8c1b 55be
000003e0: 5501 353f 4635 b1c0 d3ef 14bf ed5d 493d
000003f0: 7cae c7be 9ba4 c53e 7f37 dc3d 7f3b 9dbf

FC.0.bias f4 [128]
0.05510671 -0.14480545 0.059803948 0.27668735 -0.07014454 -0.18264797 -0.025859956 0.10442188
0.5337161 0.055969432 0.4703255 -0.117790096 -0.59320694 -0.017383995 -0.26602733 0.06751329
-0.46907526 0.42181662 -0.5035919 0.41145104 0.6112416 0.49048325 0.12206611 0.2522937
-0.071586855 -0.0048914924 -0.21045865 -0.14845149 0.42350006 0.07742448 0.33202845 0.25946736
0.19479217 -0.4659652 -0.08398854 0.19889505 0.11381303 0.3936328 -0.48657957 0.4063817
-0.51465344 0.16299452 0.2808258 -0.0816588 -0.23597969 0.110717185 0.31477892 0.31637153
-0.3999462 -0.27325723 -0.11946317 -0.1641217 0.010913032 0.6196174 -0.060378958 0.10874474
0.515794 -0.090786025 0.20115027 0.10238008 0.5518951 0.03249886 -0.104737915 -0.25704753
-0.34877858 0.15070745 0.33705038 -0.0477016 -0.080519386 -0.3396604 0.5435292 0.06536977
-0.65472025 0.01576324 -0.11453573 0.072374664 0.14828525 0.23434958 -0.34249464 0.054895427
-0.4515098 0.18807574 0.15112375 0.24000439 0.08825316 0.28817815 -0.23262739 -0.24989204
-0.40518582 0.06146452 0.13997038 0.5658436 0.042935062 -0.43607104 0.06663506 -0.29860523
0.45044813 0.2594919 0.2591392 -0.18869282 0.04531959 -0.1496267 -0.10860769 0.13907461
0.16183676 -0.3792819 0.16557437 0.82865304 -0.49164405 0.42540488 -0.09419242 0.3100483
0.2807122 0.36080393 -0.23124264 0.4346318 -0.21475907 0.42851138 0.4099527 -0.023017993
0.0771472 -0.25567043 -0.262094 -0.13930945 0.0372019 0.031694822 -0.04388339 -0.01733217
00000000: 93b7 613d e147 14be fcf4 743d f7a9 8d3e
00000010: f1a7 8fbd 1208 3bbe 42d8 d3bc 23db d53d
00000020: 9ea1 083f 3440 653d 81ce f03e ef3b f1bd
00000030: 69dc 17bf e168 8ebc bc34 88be 6844 8a3d
00000040: a22a f0be 59f8 d73e 66eb 00bf b6a9 d23e
00000050: 547a 1c3f 9f20 fb3e ccfd f93d a42c 813e
00000060: 219c 92bd d048 a0bb 7982 57be ab03 18be
00000070: 00d5 d83e ba90 9e3d a2ff a93e e8d8 843e
00000080: 9977 473e fe92 eebe 2f02 acbd 25ab 4b3e
00000090: ce16 e93d 3d8a c93e f520 f9be 4311 d03e
000000a0: 54c0 03bf 09e8 263e 66c8 8f3e bb3c a7bd
000000b0: a9a4 71be b1bf e23d b42a a13e 73fb a13e
000000c0: c0c5 ccbe 5fe8 8bbe 1ba9 f4bd 850f 28be
000000d0: 93cc 323c 3f9f 1e3f ed4f 77bd 90b5 de3d
000000e0: 130b 043f 06ee b9bd 56fa 4d3e a6ac d13d
000000f0: ff48 0d3f 861d 053d d580 d6bd bc9b 83be
00000100: 1b93 b2be 0e53 1a3e de91 ac3e c162 43bd
00000110: 59e7 a4bd f8e7 adbe bb24 0b3f 96e0 853d
00000120: bf9b 27bf e921 813c b591 eabd 2b39 943d
00000130: 17d8 173e 56f9 6f3e 755b afbe 07da 603d
00000140: 4b2c e7be ed96 403e 2fc0 1a3e b6c3 753e
00000150: 13be b43d 168c 933e e035 6ebe b3e3 7fbe
00000160: 8474 cfbe 38c2 7b3d 6554 0f3e 20db 103f
00000170: addc 2f3d b444 dfbe f677 883d c9e2 98be
00000180: 23a1 e63e 1fdc 843e e5ad 843e b138 41be
00000190: 09a1 393d be37 19be b56d debd 9369 0e3e
000001a0: 89b8 253e 3d31 c2be 548c 293e 9b22 543f
000001b0: c5b8 fbbe abce d93e f5e7 c0bd a7be 9e3e
000001c0: 82b9 8f3e 4bbb b83e dfca 6cbe 0f88 de3e
000001d0: cde9 5bbe d865 db3e 52e5 d13e 3b90 bcbc
000001e0: 5aff 9d3d 3ce7 82be 2f31 86be 23a7 0ebe
000001f0: 0561 183d 6ed2 013d 12bf 33bd 32fc 8dbc

FC.2.weight f4 [128, 128]
-0.11348019 -0.18321435 0.11747499 -0.0016541505 -0.01618148 -0.23312575 0.08647787 -0.18730013
-0.15664457 -0.005855255 0.09482962 -0.20501865 -0.17616388 0.069018774 -0.21137406 -0.20641598
-0.03592982 0.029682558 -0.09513412 -0.017841572 0.14626862 -0.18990128 -0.00844428 -0.19244249
0.07156826 -0.10492457 -0.02743132 0.09755271 -0.12517563 -0.080122195 -0.07864918 0.0073420596
0.1269402 -0.19802377 0.036961395 0.07161902 0.07169692 -0.12518974 0.03289743 -0.22454633
-0.1411354 0.109130934 -0.2568259 -0.21594314 0.15786456 -0.05514805 -0.064615324 0.109627165
0.105637476 0.17217872 0.14645717 -0.072712615 -0.108650565 0.008389652 -0.130734 -0.023421567
0.09062098 -0.2235143 -0.18893194 0.0687272 0.0899614 0.08828919 -0.12373035 0.015709104
0.1880249 -0.15864684 -0.034675807 0.027736597 0.15782362 -0.08655916 -0.17049538 0.03500034
-0.22432293 0.13082075 0.048762154 0.10511555 -0.14211747 0.12832256 -0.17131926 0.083657354
-0.22276525 -0.042163342 -0.1486924 -0.03575223 0.13879406 -0.22654308 0.002056996 0.04157336
-0.16565843 -0.024566958 0.11111392 -0.17785338 0.087510064 -0.15695451 0.0020228976 -0.1752833
-0.2372146 0.107400626 -0.08419865 -0.13696963 -0.21047999 -0.10763272 -0.18345702 0.04443276
-0.20351379 -0.014921148 -0.07025958 0.044838116 -0.18486035 -0.1673699 0.110548474 -0.27289698
-0.1682277 -0.21353883 0.027552139 0.10278359 0.1320464 0.04628029 0.19082114 -0.15439911
0.026044814 -0.117860846 -0.1517592 -0.14616485 0.033893894 0.13136847 0.11947741 -0.049037665
-0.41981855 -0.18467094 -0.20646928 -0.29790846 -0.3822531 -1.0085436 0.14150982 -0.056390643
0.08503239 0.07371978 0.21173184 0.056218054 -0.25507993 -0.30570677 -0.07334384 -0.06477578
-0.0037996199 -0.12251722 -0.0054762987 -0.09816517 0.23336816 0.23747785 0.104544275 -0.24788088
-0.1494828 -0.23004143 0.11383104 0.07444163 0.23417684 0.16406292 -0.06434428 -0.9972402
0.3349663 -0.13506886 0.20859288 -0.17565122 -0.11708009 0.36757833 0.29289943 0.053976048
-0.20511612 -0.9131219 0.15794554 0.015672438 -1.2513286 -0.09529862 0.34700927 0.0053680046
-0.025314463 0.31846723 0.24693209 0.25899145 -0.3207439 0.021913731 -0.21037152 0.15749286
0.43485898 -0.12333812 0.44759408 0.18067318 0.19061805 -0.70090175 0.040713485 -0.19462144
-0.50263256 -0.28040197 -0.27443758 -0.21623051 0.2554409 0.54597145 0.3609722 -0.09842259
-0.08482741 0.33732167 -0.1334369 -0.18436861 0.46280602 -0.061099537 -0.27812037 0.40965432
0.25895968 -0.11501116 0.3810413 -0.24791424 0.10283354 -0.23914261 0.5147634 -0.25467482
-0.24848177 0.8747398 0.045775212 0.3342589 -0.4796634 0.14267261 0.3035749 0.14037678
0.08315372 0.020341478 0.33869448 -0.117026985 0.44355017 0.05415428 -0.24820055 0.33645636
0.36877444 0.19199254 0.2044059 0.0062683625 -0.41633084 0.20532516 -0.32682133 0.13811864
0.39543712 0.22884189 -0.61974525 0.3064354 0.5964896 -0.00056166376 0.23240961 0.24281293
-0.13353291 -1.2206076 0.042098787 0.070569396 0.1077333 0.19619118 -0.13519284 -0.07242236
00000000: 4d68 e8bd 8b9c 3bbe ba96 f03d 15d0 d8ba
00000010: 068f 84bc 84b8 6ebe 4f1b b13d 9bcb 3fbe
00000020: 6f67 20be 70dd bfbb 0836 c23d 69f0 51be
00000030: 4e64 34be b759 8d3d 7172 58be b65e 53be
00000040: 262b 13bd d628 f33c add5 c2bd 7d28 92bc
00000050: 71c7 153e 7b75 42be e159 0abc a50f 45be
00000060: 6192 923d b1e2 d6bd a6b7 e0bc b7c9 c73d
00000070: 0a2e 00be 1b17 a4bd d212 a1bd a995 f03b
00000080: 9dfc 013e bec6 4abe d564 173d feac 923d
00000090: d6d5 923d bd31 00be 75bf 063d 79ef 65be
000000a0: cc85 10be 0a80 df3d af7e 83be 3320 5dbe
000000b0: 3fa7 213e ece2 61bd 0a55 84bd 3584 e03d
000000c0: 7658 d83d 9e4f 303e def8 153e 5aea 94bd
000000d0: 3084 debd c074 093c 22df 05be 96de bfbc
000000e0: 7e97 b93d efe0 64be 6077 41be d9c0 8c3d
000000f0: af3d b83d f6d0 b43d 5666 fdbd 61b0 803c
00000100: 9989 403e 5174 22be 3808 0ebd dc37 e33c
00000110: 849c 213e ee45 b1bd 5796 2ebe 845c 0f3d
00000120: e9b4 65be e0f5 053e d3ba 473d d246 d73d
00000130: 3e87 11be fd66 033e 516e 2fbe 8c54 ab3d
00000140: 931c 64be 78b3 2cbd d242 18be ee70 12bd
00000150: 0820 0e3e e9fa 67be abce 063b d448 2a3d
00000160: 5da2 29be a540 c9bc b28f e33d 321f 36be
00000170: 7a38 b33d afb8 20be 9792 043b 777d 33be
00000180: 62e8 72be dcf4 db3d 5870 acbd c441 0cbe
00000190: 1188 57be 8b6e dcbd 28dc 3bbe 20ff 353d
000001a0: eb65 50be d577 74bc 41e4 8fbd 2ca8 373d
000001b0: 084c 3dbe 0463 2bbe 3d67 e23d 27b9 8bbe
000001c0: e243 2cbe eca9 5abe 06b5 e13c 3480 d23d
000001d0: 2c37 073e 6790 3d3d 9e66 433e cd1a 1ebe
000001e0: ef5b d53c 0761 f1bd c466 1bbe 3dac 15be
000001f0: 53d4 0a3d 7585 063e 93b0 f43d b8db 48bd
00000200: 75f2 d6be 611a 3dbe af6c 53be 7587 98be
00000210: aeb6 c3be f517 81bf f3e7 103e e0f9 66bd
00000220: 7625 ae3d 65fa 963d 3bd0 583e e744 663d
00000230: d699 82be 9985 9cbe 4c35 96bd 2aa9 84bd
00000240: 0b03 79bb 4fea fabd 8672 b3bb d20a c9bd
00000250: 10f8 6e3e 652d 733e 4f1b d63d 7cd4 7dbe
00000260: 0512 19be fb8f 6bbe 4020 e93d da74 983d
00000270: 0ecc 6f3e 1c00 283e efc6 83bd 224b 7fbf
00000280: b480 ab3e 7e4f 0abe 5f99 553e eadd 33be
00000290: b0c7 efbd 3a33 bc3e eaf6 953e fd15 5d3d
000002a0: f609 52be 5bc2 69bf 7abc 213e 7c63 803c
000002b0: 892b a0bf ec2b c3bd 33ab b13e 16e6 af3b
000002c0: 4760 cfbc 230e a33e c4db 7c3e 879a 843e
000002d0: 8b38 a4be 6d84 b33c a26b 57be cf45 213e
000002e0: d6a5 de3e b298 fcbd 0d2b e53e 6402 393e
000002f0: 6131 433e 4c6e 33bf 2fc3 263d d84a 47be
00000300: 87ac 00bf d990 8fbe 1583 8cbe 886b 5dbe
00000310: 26c9 823e c9c4 0b3f 59d1 b83e c891 c9bd
00000320: feb9 adbd 6db5 ac3e afa3 08be 20cb 3cbe
00000330: e9f4 ec3e 8243 7abd cb65 8ebe 36be d13e
00000340: 5d96 843e f98a ebbd d817 c33e 3bdd 7dbe
00000350: 649a d23d cde1 74be 89c7 033f bd64 82be
00000360: 0172 7ebe f3ee 5f3f ca7e 3b3d fc23 ab3e
00000370: 7196 f5be c518 123e 2b6e 9b3e eebe 0f3e
00000380: 7f4c aa3d 2ca3 a63c 5d69 ad3e d8ab efbd
00000390: 0219 e33e e1d0 5d3d 4928 7ebe 0244 ac3e
000003a0: 01d0 bc3e b199 443e c84f 513e d666 cd3b
000003b0: 5129 d5be c240 523e 2055 a7be f96e 0d3e
000003c0: bc76 ca3e 8755 6a3e a0a7 1ebf 1ae5 9c3e
000003d0: 8bb3 183f 9e3c 13ba c9fc 6d3e f4a3 783e
000003e0: dabc 08be df3c 9cbf c76f 2c3d b086 903d
000003f0: 47a3 dc3d 57e6 483e fe6f 0abe 2d52 94bd

FC.2.bias f4 [128]
-0.10780203 0.10142863 0.573481 -0.113858014 -0.10798461 0.25857785 -0.110656045 0.10069585
0.10889626 0.018468997 0.05698612 0.32005933 0.29885906 0.058529686 0.15741849 0.31867084
0.07673375 0.12308394 -0.087128535 0.07370914 -0.18269044 -0.03842716 0.32035756 -0.016453406
-0.026551427 0.015489153 -0.018021781 0.11586262 0.065981954 0.24736772 0.023746537 -0.07228718
-0.07092669 0.0039230203 0.08745463 0.042846147 0.12892902 0.1529158 0.09116586 -0.19989581
0.031199103 -0.14217521 -0.11967201 0.20683166 0.14841837 -0.100461036 0.071417645 0.034400526
0.31353098 0.021523891 0.00083934754 0.10865548 0.29107127 0.15289482 -0.114844896 -0.031939577
0.18241563 0.030530374 -0.0064094593 -0.025300682 0.07378261 -0.07104273 -0.103769794 -0.12519029
-0.06509541 0.07090857 -0.0027026797 -0.124036595 0.05747732 0.24800363 0.2040972 -0.2711447
0.08306201 0.067789055 -0.02324723 -0.09498992 0.16680597 -0.2412777 0.068578504 -0.38337156
0.03148753 -0.037447676 -0.1530745 -0.2209776 0.10432326 -0.21002428 -0.11274899 0.21462001
-0.04530388 -0.3762735 0.1997218 0.02212818 0.11878687 0.2182195 0.03862588 0.07939931
-0.098957404 0.12742001 -0.032289837 -0.0434649 0.19241387 0.17134753 0.10423062 0.14904225
0.12962264 -0.078570515 0.13876912 -0.14362337 -0.014956157 -0.1447533 0.119379774 -0.08809108
0.21005613 -0.1820194 -0.1900358 0.044413798 0.13466457 -0.07383222 -0.00885125 -0.18053599
0.04906379 -0.011261031 0.027362505 0.023561765 0.13851717 0.020511948 -0.08154006 0.04327708
00000000: 50c7 dcbd d0b9 cf3d a7cf 123f 642e e9bd
00000010: 0927 ddbd 5164 843e a39f e2bd a039 ce3d
00000020: 0105 df3d 4b4c 973c 476a 693d d1de a33e
00000030: 0e04 993e d3bc 6f3d 5032 213e d328 a33e
00000040: 9626 9d3d 6f13 fc3d 7270 b2bd d1f4 963d
00000050: 3413 3bbe cc65 1dbd e805 a43e 4bc9 86bc
00000060: 6182 d9bc 37c6 7d3c 6aa2 93bc 6249 ed3d
00000070: 8c21 873d f74d 7d3e 1988 c23c 4d0b 94bd
00000080: 0342 91bd ae8c 803b 6a1b b33d 717f 2f3d
00000090: f805 043e f695 1c3e 2bb5 ba3d 7db1 4cbe
000000a0: 4395 ff3c 6196 11be 9916 f5bd aecb 533e
000000b0: fcfa 173e 84be cdbd 6a43 923d 91e7 0c3d
000000c0: 2287 a03e df52 b03c a907 5c3a c486 de3d
000000d0: 4b07 953e 7690 1c3e cd33 ebbd 13d3 02bd
000000e0: 2acb 3a3e d61a fa3c 7106 d2bb 6043 cfbc
000000f0: 561b 973d da7e 91bd 4285 d4bd e231 00be
00000100: be50 85bd 8338 913d 711f 31bb e606 febd
00000110: 576d 6b3d aaf4 7d3e dbfe 503e 7ad3 8abe
00000120: 6a1c aa3d fdd4 8a3d fa70 bebc 138a c2bd
00000130: 2fcf 2a3e 8011 77be e372 8c3d 4749 c4be
00000140: 11f9 003d bc62 19bd 90bf 1cbe f447 62be
00000150: 6fa7 d53d 9b10 57be f1e8 e6bd 59c5 5b3e
00000160: 9090 39bd eca6 c0be df83 4c3e 2846 b53c
00000170: 8846 f33d ef74 5f3e 2c36 1e3d 1b9c a23d
00000180: 2eaa cabd 647a 023e 5942 04bd 4008 32bd
00000190: 2408 453e ba75 2f3e dd76 d53d 889e 183e
000001a0: ccbb 043e 94e9 a0bd 7e19 0e3e 0112 13be
000001b0: ab0a 75bc 363a 14be 627d f43d 1969 b4bd
000001c0: f418 573e 4b63 3abe bf98 42be 3eeb 353d
000001d0: 82e5 093e 5935 97bd d504 11bc 6dde 38be
000001e0: 1df7 483d 3080 38bc 5527 e03c 9a04 c13c
000001f0: 72d7 0d3e ac08 a83c 7afe a6bd 4f43 313d

FC.4.weight f4 [4, 128]
-0.16832009 0.40988466 0.6914616 -0.26147446 -0.005723496 0.50903004 -0.099884756 0.34362686
0.3281649 -0.22569683 0.12999302 0.21637201 1.0891774 -0.58304787 -0.34544775 1.0118911
-0.59135765 -0.30440626 0.16595003 -0.24381028 -0.41869232 -0.3567473 0.11665917 -0.31245488
-0.15635948 0.9787556 -0.14983533 -0.07999235 0.2333554 0.41161212 -0.04048866 0.09760385
0.121276006 0.30374712 -0.062203594 -0.6368894 -0.07165232 0.015519768 0.7119992 0.24552386
-0.61275595 0.12770288 0.17552815 0.30717844 0.43851694 -0.11195882 -0.49499923 -0.48591623
-0.15705948 0.05420175 -0.41375896 0.01801598 -0.21666855 -0.46639636 -0.49204248 -0.09946266
0.030854443 0.43229055 -0.1721708 -0.002160115 -0.5392474 0.07860966 -0.15717168 0.19144785
-0.03541006 0.49285087 0.15642355 0.28163266 -0.09598376 0.5257511 0.20946646 -0.2020784
-0.59049183 0.14633027 -0.16444762 0.14417414 -0.27918968 -0.1689927 0.39697123 -0.16409206
-0.32843998 -0.0630848 0.19897643 -0.05054449 -0.1056588 0.1130959 0.08546547 0.5551559
-0.12710956 0.41873538 -0.11728301 -0.4224185 0.08629511 0.057234626 -0.6671251 -0.4458079
0.19659986 0.12124775 -0.3937407 0.35597 0.02639458 0.5943282 -0.32716122 -0.42164284
-0.31246135 -0.24940659 0.47941422 -0.2712722 -0.26682013 -0.2777294 -0.2901546 0.15296414
0.22765173 -0.4814477 0.0051340954 -0.4619191 0.16939147 -0.1813277 -0.5773834 -0.444262
-0.2625787 0.046160456 0.20762266 -0.332217 -0.3775186 0.3402201 -0.7505685 0.49316764
0.09619498 0.5595747 0.44164503 -0.08611445 -0.072702445 0.59270024 -0.15102959 0.63948184
-0.5877705 0.19328234 0.39444768 0.43488404 0.63356125 -0.34621415 -0.059265316 0.9349785
-0.31840643 0.0946276 -0.13951567 -0.3110408 -0.9767261 -0.6795499 0.275319 -0.20730835
0.15759236 1.2992812 0.004386916 -0.7136222 0.49748272 0.63365555 -0.17404956 0.04242148
-0.11108966 0.7333258 -0.28953904 -0.30168918 -0.0020695236 0.27790463 0.34881324 0.40876645
-0.34483695 0.7481639 -0.3312036 0.32608488 0.04838728 -0.65331393 -0.3179391 0.03952379
-0.5514517 0.2816309 -0.11075503 0.30203795 0.17127761 -0.2870981 -0.5587946 -0.23154889
-0.81344575 0.46138334 -0.22098687 0.058010213 -0.19561681 0.15328805 0.5120672 -0.23658744
-0.47286132 0.3535759 0.1657591 0.23559988 0.21073279 0.66965705 0.2773829 -0.9932369
-0.28127477 0.3804173 0.005344823 0.1624576 1.1847633 0.23706457 0.010055712 0.38303876
-0.17460735 -0.12689205 0.5544279 0.6886602 0.2526954 0.5282446 0.2180025 0.49578387
-0.091981694 0.59743375 -0.1341196 -0.07625546 -0.50902504 0.22106986 -0.21344002 -0.33852378
-0.19234684 -0.26019844 -0.21534961 0.02572883 -0.2938799 0.55806535 -0.8285973 -0.15831806
-0.75358224 0.21147476 0.67603 -0.06425653 -0.15427941 0.089404374 -0.62202317 0.02584206
0.2121197 -0.4057439 -1.1376015 -0.47151086 0.17636505 0.083262675 -0.36890373 0.13961849
-0.59540355 0.17110996 0.64655286 -0.20496562 -0.11390032 0.2778165 -0.50123864 0.64546674
00000000: 1a5c 2cbe 67dc d13e a103 313f fbdf 85be
00000010: 2a8c bbbb cb4f 023f 6190 ccbd dcef af3e
00000020: 3b05 a83e 121d 67be e41c 053e a090 5d3e
00000030: 2a6a 8b3f a042 15bf 87de b0be a685 813f
00000040: 3763 17bf 23db 9bbe ceee 293e 67a9 79be
00000050: d75e d6be 95a7 b6be 01eb ee3d 16fa 9fbe
00000060: b31c 20be ba8f 7a3f 6f6e 19be 07d3 a3bd
00000070: b8f4 6e3e d3be d23e 70d7 25bd 87e4 c73d
00000080: 8e5f f83d be84 9b3e 32c9 7ebd 2f0b 23bf
00000090: 74be 92bd a046 7e3c 9445 363f 9b6a 7b3e
000000a0: 93dd 1cbf 8bc4 023e a7bd 333e 7e46 9d3e
000000b0: 4b85 e03e aa4a e5bd 8a70 fdbe 03ca f8be
000000c0: 33d4 20be a702 5e3d 37d8 d3be 4096 933c
000000d0: 5cde 5dbe 81cb eebe feec fbbe 14b3 cbbd
000000e0: 75c2 fc3c 3055 dd3e 8b4d 30be b790 0dbb
000000f0: 1e0c 0abf 1afe a03d 9df1 20be e80a 443e
00000100: 240a 11bd f356 fc3e 7f2d 203e 2832 903e
00000110: 2293 c4bd a097 063f 607e 563e a4ed 4ebe
00000120: 792a 17bf 9ad7 153e f564 28be 63a2 133e
00000130: f3f1 8ebe 6c0c 2dbe d03f cb3e c007 28be
00000140: 4929 a8be 9b32 81bd 7ac0 4b3e bd07 4fbd
00000150: a463 d8bd d39e e73d 8508 af3d b21e 0e3f
00000160: 0229 02be 7c64 d63e 1332 f0bd 3d47 d8be
00000170: 7ebb b03d db6e 6a3d b6c8 2abf ef40 e4be
00000180: 7951 493e be50 f83d 6298 c9be b341 b63e
00000190: 7239 d83c e525 183f ad81 a7be 92e1 d7be
000001a0: effa 9fbe 7164 7fbe c875 f53e 31e4 8abe
000001b0: a69c 88be 8c32 8ebe 258f 94be a2a2 1c3e
000001c0: 891d 693e 5080 f6be ea3b a83b a980 ecbe
000001d0: f574 2d3e f8ad 39be 66cf 13bf 4f76 e3be
000001e0: b770 86be bf12 3d3d 099b 543e 5918 aabe
000001f0: 1e4a c1be 5431 ae3e 4225 40bf 7880 fc3e
00000200: e001 c53d 4a40 0f3f 4c1f e23e c65c b0bd
00000210: 05e5 94bd 34bb 173f 80a7 1abe 15b5 233f
00000220: 2178 16bf ceeb 453e 0cf5 c93e 1fa9 de3e
00000230: 1231 223f fb42 b1be 30c0 72bd c05a 6f3f
00000240: 2b06 a3be 1dcc c13d 32dd 0ebe bd40 9fbe
00000250: b90a 7abf fbf6 2dbf 9df6 8c3e a448 54be
00000260: e45f 213e d94e a63f 1ec0 8f3b f2af 36bf
00000270: 0eb6 fe3e 4037 223f 0c3a 32be 25c2 2d3d
00000280: fa82 e3bd 3dbb 3b3f 763e 94be 0177 9abe
00000290: d8a0 07bb 8449 8e3e a697 b23e d649 d13e
000002a0: 788e b0be ab87 3f3f 8593 a9be 99f4 a63e
000002b0: be31 463d 953f 27bf eac8 a2be b3e3 213d
000002c0: f02b 0dbf ed31 903e 88d3 e2bd b8a4 9a3e
000002d0: 6663 2f3e 86fe 92be 2a0d 0fbf 271b 6dbe
000002e0: fb3d 50bf 703a ec3e 624a 62be 1e9c 6d3d
000002f0: c64f 48be 8bf7 1c3e d616 033f fa43 72be
00000300: e11a f2be e607 b53e c1bc 293e 1841 713e
00000310: 56ca 573e a56e 2b3f 2205 8e3e c644 7ebf
00000320: 3f03 90be 0ec6 c23e a023 af3b 495b 263e
00000330: 53a6 973f 0ec1 723e b7c0 243c a81d c43e
00000340: 45cc 32be fdef 01be fdee 0d3f 094c 303f
00000350: 4b61 813e 0a3b 073f 0c3c 5f3e 62d7 fd3e
00000360: e660 bcbd 6bf1 183f a656 09be d32b 9cbd
00000370: 774f 02bf 2360 623e 0590 5abe fd52 adbe
00000380: 92f6 44be bb38 85be 9c84 5cbe 44c5 d23c
00000390: 6d77 96be 5fdd 0e3f f41e 54bf 211e 22be
000003a0: c4ea 40bf d78c 583e 4d10 2d3f ed98 83bd
000003b0: 6cfb 1dbe a419 b73d e93c 1fbf bab2 d33c
000003c0: e835 593e aabd cfbe ed9c 91bf df69 f1be
000003d0: 0a99 343e 9f85 aa3d f3e0 bcbe 26f8 0e3e
000003e0: 5e6c 18bf 7337 2f3e 7d84 253f 82e2 51be
000003f0: 9244 e9bd f73d 8e3e 2d51 00bf 4f3d 253f

FC.4.bias f4 [4]
0.15287824 0.031269193 0.09489743 -0.10892554
00000000: 1d8c 1c3e 2014 003d 9559 c23d 5a14 dfbd
