DQN/weights-and-plot/final_weights_200.pth (torch, 75500 bytes, 6 tensors)

FC.0.weight f4 [128, 8]
00000000: 5a44 e03c 3901 c1bf 731a cdbd a387 03bf
00000010: d5fd 07bd 77d4 a0be 40bd 5e3f 044a b7be
00000020: fe5e ca3d 4fa0 f4bf a483 36bf c8f1 abbe
00000030: 7b4b ac3e 6199 053d b66d 953e 2475 4b3f
00000040: 5f31 203f f915 853e 9856 813f 915a e33e
00000050: 938d 1abf a22d 863e 5253 b3be 23ff d6be
00000060: 1459 26bf a430 15c0 2b86 37bf 2cbc 7cbc
00000070: e861 9dbe ebba c63e 2fcc 7b3f ac98 003f
00000080: 7cc1 9bbd 9a2f 6abe 1f58 9fbe e69c 0bbe
00000090: 62c1 8ebf 3a4a 0bbf 5b53 743f d89a 323e
000000a0: 3829 56bd 9ce6 18c0 ad28 1f3f cd65 b1be
000000b0: 7ab1 233e 8232 1e3e 3f31 c23e 0568 8b3e
000000c0: 94f6 1bbe 4767 aabe ba0a 0e3f c52f 59bf
000000d0: d04f 5cbf f963 f43e a49d a53e c51a 0ebe
000000e0: 534d 1abe a40d 4f3e fe8a 8abf 8dab 60bf
000000f0: 7e72 933e 5577 4c3e 80dc b5be dc82 1fbe
00000100: 5a9c 1a3f 1279 de3e 5463 20bf 3f9d b13e
00000110: 5575 d1be e8ae 133f c7ab b03c b9f2 b93e
00000120: ec04 e13e cb20 ea3e 6bd8 783f ef18 f6be
00000130: 5be1 2f3f 7744 a7be 03ed 623f 7db2 433d
00000140: b68c b8bc bdf8 613f 7bd1 583e 9bfc 933e
00000150: 399a a23e a881 07bf e0db f53e af84 1dbf
00000160: 5149 243f 1bc4 08be cda9 213f e008 adbe
00000170: 88ff 02bf fd29 3bbd 5269 36bf f9ee 54bf
00000180: 9ec6 4fbf c49c 473f 38e6 263e 9a67 d3bd
00000190: bd27 45bf 31e1 19bf 57a8 1c3e e26e 03be
000001a0: 95a4 23bf c56c a9bf 9e93 f73e f1a2 03bf
000001b0: 9e73 bb3d d99b 373f 0a6c 133f cfb1 0fbf
000001c0: 1879 5fbe 3766 0e3e f15c 78bf fa61 fdbe
000001d0: 3caa 2a3f 9f30 1c3f d729 64bf 0840 2e3f
000001e0: e853 283f e62a dabe 52e3 6b3f 1cd1 3c3e
000001f0: f959 2f3f 3a55 21bd 02b2 953f 2dff 7c3e
00000200: c80a 6f3f 01c1 3abf 3f03 ecbe 24e1 54bf
00000210: 5213 22bd 5db8 2a3f 0e1f 62bf 6a87 783f
00000220: 72c2 e03d ff72 adbf 7893 0a3f a2ec 00be
00000230: c6a6 3a3f f9f1 4dbd 915f 5fbf 5544 10bf
00000240: 4cd8 88bf 7b53 9cbf 882b 51be 42b2 413f
00000250: c6ef 29be 5fbc 8a3f 327f 08bf f70e 423f
00000260: d1c0 3c3e 2737 203f 3a56 d73e d51f ff3e
00000270: c37c 30be 377e d23e 4039 233f e7fb 123f
00000280: c8dc acbe 0bdf 4b3e 3a9a a8bd 8344 c9be
00000290: d3e6 a0be 418f 67bf f9f9 343f 553e a83c
000002a0: c11f 10bf 9b43 e3bd b02d a6be 9d48 4abf
000002b0: 298c 87bf 05fc 0abf f8c8 353f 6fd2 2bbf
000002c0: 2a59 c2bd 452e ad3e 8418 7e3f 3fb3 613f
000002d0: f3af 35bf 0932 e33e 5d88 89be 6a57 0fbf
000002e0: e2ee 3b3f 4be3 683c 9c7c 733f 86ba 9dbe
000002f0: 6961 ddbe 2411 0cbf 9776 55bf c1ad 523f
00000300: a290 31bf b7ad fd3e 01c9 883e 921c 023d
00000310: 0435 1d3f e288 a5be ccd4 9ebd db52 5d3f
00000320: 761e 04be 5ddb 11bf 9b27 aebe 08a7 773e
00000330: 3920 23bf 9d8e 51bf 47a0 3fbf 859e 5a3d
00000340: 2bdb bbbe ce85 803e 4924 f8be 4d74 5fbf
00000350: 7cc9 593f e56b 1c3f c551 58bf 63b8 033f
00000360: ac91 3d3f ae84 b93e c9fc ccbe ed07 eebe
00000370: 9032 613f cf43 ecbd f0ae d7bd 0901 043f
00000380: 7513 353f b806 3e3f 45f1 033f fb6c 833d
00000390: dd3a 273f 7140 44bf 2a76 953f 85b1 d4be
000003a0: 3618 0f3f 6669 c8bd f689 d6bd 2a7b 38bf
000003b0: 006b 69bd 7752 25bf 53e6 43be a61e 34bf
000003c0: 98c3 003f 2117 5e3f 8527 b3be 53e1 da3e
000003d0: 5055 973e cf4f 473f ec5d 34bf 7e6e 96be
000003e0: 9ee2 e53e 38f1 58c0 7c76 edbe da16 3c3e
000003f0: a8cb 0dbf 9f6d 293f 9600 ca3e b244 3cbf
0.027376343 -1.5078498 -0.100148104 -0.5137884 -0.033201057 -0.31412098 0.8700752 -0.35798657
0.098813996 -1.9111422 -0.7129462 -0.33582902 0.33651337 0.032616977 0.29185265 0.7947562
0.62575334 0.25993326 1.0104551 0.44405034 -0.60372275 0.2620669 -0.35024506 -0.4199153
-0.6497967 -2.3310938 -0.716891 -0.015425723 -0.3073876 0.38814482 0.98358434 0.5023296
-0.076052636 -0.22869721 -0.3112192 -0.13634071 -1.1152766 -0.54410136 0.9543969 0.1744188
-0.052285403 -2.3890753 0.6217144 -0.3464798 0.1598567 0.15448955 0.37928197 0.27227798
-0.15230781 -0.3328192 0.5548512 -0.84838516 -0.86059284 0.47732523 0.32346833 -0.138774
-0.1506856 0.20220047 -1.0823667 -0.87761766 0.28798288 0.19967397 -0.3551979 -0.15577263
0.60394824 0.43451744 -0.6265156 0.34690282 -0.4090983 0.5768876 0.021566285 0.36317995
0.43949068 0.45728144 0.9720523 -0.48065898 0.6870324 -0.32669422 0.886429 0.04777764
-0.022528034 0.8827017 0.2117366 0.2890366 0.31758288 -0.52932215 0.48019314 -0.61530584
0.6417437 -0.13356058 0.6314972 -0.33795834 -0.5117116 -0.04569434 -0.71254456 -0.83177143
-0.8116244 0.7797358 0.16298759 -0.10322495 -0.7701376 -0.6010924 0.15298592 -0.12835267
-0.6392301 -1.3236319 0.4835481 -0.51420504 0.091529116 0.7172218 0.5758673 -0.5613069
-0.21823537 0.1390618 -0.9701682 -0.49488813 0.6666601 0.6101169 -0.8912634 0.68066454
0.6575303 -0.42610854 0.9214374 0.18439144 0.6849666 -0.03938792 1.1694949 0.24706717
0.93375826 -0.7295075 -0.46096227 -0.8315604 -0.039569207 0.66687566 -0.88328636 0.97081625
0.109745875 -1.3550719 0.5413127 -0.12590268 0.72910726 -0.05027959 -0.872552 -0.56354266
-1.0691009 -1.2212976 -0.20426762 0.75662625 -0.16595373 1.0838736 -0.53319085 0.75804085
0.18432929 0.62584156 0.42057973 0.49828973 -0.17235093 0.4111192 0.6375923 0.5741562
-0.33762193 0.19909303 -0.082325414 -0.39310083 -0.31426105 -0.90452963 0.7069393 0.020537535
-0.5629845 -0.11096879 -0.32456732 -0.7901705 -1.0589648 -0.542908 0.7100978 -0.6711797
-0.09489663 0.33824363 0.9925616 0.8816413 -0.709716 0.4437411 -0.2686185 -0.5599276
0.7341138 0.014214347 0.95112014 -0.3080637 -0.4323838 -0.54713655 -0.8338408 0.8229638
-0.6936132 0.49546596 0.26715854 0.031765528 0.6140902 -0.32330996 -0.077554315 0.8645455
-0.12902245 -0.56975347 -0.34014592 0.24184811 -0.6372104 -0.81858236 -0.7485394 0.053373832
-0.3669065 0.25102085 -0.48465183 -0.87286836 0.85073066 0.61102134 -0.8449977 0.51453227
0.740504 0.3623404 -0.4003661 -0.46490422 0.8796778 -0.11536371 -0.105314136 0.5156408
0.70732814 0.74229 0.51540023 0.06417271 0.65324193 -0.7666083 1.1676686 -0.41541687
0.5589632 -0.09785728 -0.10475533 -0.72062933 -0.05698681 -0.64578956 -0.1913083 -0.70359266
0.5029845 0.8675404 -0.34991089 0.42750034 0.29557276 0.77856153 -0.70455813 -0.29381174
0.44899458 -3.3897228 -0.4637946 0.18368092 -0.5538888 0.66182894 0.39453572 -0.7354232

FC.0.bias f4 [128]
00000000: 3111 dcbd 4414 9bbe d201 263d f157 793c
00000010: a627 45be 81ab c9bd 6dcf e8bd 1edc 33ba
00000020: a5f4 013f 82de c1bd ff6c a03e c5db 49bd
00000030: 2d48 babe 9310 a5bc ac4b 7ebe aa8c 203e
00000040: d2ed efbe 6b6d 9a3e ad82 d2be 1b9a fe3e
00000050: 7872 d43e 6efd e23e 0ca0 1e3e a2dd b43e
00000060: 736e 5d3c 3ddf bbbd 43c0 77be f496 50be
00000070: a698 c23e c699 39bd 4e2d 923e bafe 023e
00000080: ad63 bd3d 0b21 c0be 18d5 663c 066c b23e
00000090: b9f5 633d 7b4f b53e 2e87 e7be 0d25 b33e
000000a0: d8f5 d0be aa93 1ebe 0221 993e 4498 08be
000000b0: 086e 93be 4ac5 1bbe 2058 8e3e a7e8 843e
000000c0: f2bf d5be eb98 47bd 4426 49be 4581 9fbe
000000d0: ead1 ccbd 3eea f33e f738 40be b12d a9bc
000000e0: b822 b13e bce8 1cbe 6131 8e3e 99d0 423e
000000f0: c7c0 f83e 3fb3 733d b8ca 88be 93d9 b5be
00000100: 8572 04bf 9190 743e 2a59 2c3e ee36 6b3d
00000110: 3f27 85be 655d aabe 3871 143f f286 383e
00000120: 2de6 37bf f566 d93d 8c33 edbd 37e5 18bd
00000130: af89 a83d d97f 683e de8d 8ebe fa7a fb3d
00000140: 6438 6ebe d47c 603e 3b07 963e 9a83 923e
00000150: a312 f33d 20e6 1e3e bd9e 8fbe 7e43 e9bd
00000160: d28f e9be a940 1c3e 70d2 033d 37bf 053f
00000170: 13b7 a73d 5de0 afbe 1ec1 77bd 96f8 5bbe
00000180: 2303 a73e 5f9b 953e f037 653e 19e9 b3bd
00000190: 9fba bebd 219d dabd 9b97 edbe 946e a43d
000001a0: 6281 263e 05ef 4d3d cd45 903e d008 553f
000001b0: b7b3 f2be 7713 bc3e 6664 2fbe c23f 7d3e
000001c0: 4634 dd3e 6adc a63e 39a0 c4bd e5b3 d53e
000001d0: a11c a4be 442c f03e 3e8a ce3e a346 0fbe
000001e0: e224 883c bdef 69be 6679 1dbe 18ca 74be
000001f0: 0755 45bc 72ba cbbd c066 73be ad71 493e
-0.107454665 -0.302889 0.04052908 0.015218721 -0.19253406 -0.09847165 -0.11367688 -0.0006861108
0.5076392 -0.09466268 0.31333157 -0.049281854 -0.3638319 -0.020149505 -0.24833554 0.15678659
-0.4686113 0.30161604 -0.41115323 0.49726948 0.41493583 0.44333977 0.1549074 0.35325342
0.013515103 -0.09173439 -0.24194436 -0.20370084 0.38007087 -0.045312665 0.2855019 0.12792483
0.09247527 -0.3752521 0.014088891 0.3484804 0.05565426 0.354122 -0.4522032 0.34989205
-0.40812564 -0.15486017 0.29907995 -0.13339335 -0.28794885 -0.15211979 0.2780161 0.2595875
-0.41748005 -0.04872982 -0.19643503 -0.31153312 -0.100009754 0.4763965 -0.1877173 -0.02065167
0.345968 -0.15323156 0.27772048 0.19024886 0.48584577 0.059497114 -0.26717162 -0.35517558
-0.5173724 0.23883273 0.16830888 0.057425432 -0.26006505 -0.3327438 0.5798526 0.18020228
-0.71835595 0.106153406 -0.115820974 -0.03732797 0.08229386 0.2270502 -0.2784261 0.12279315
-0.23263699 0.21922618 0.2930239 0.2861603 0.11868789 0.15517473 -0.28050795 -0.11389826
-0.4561754 0.15259041 0.03218311 0.52244896 0.081892155 -0.34350863 -0.060486905 -0.21481547
0.3261958 0.292201 0.2238462 -0.08784694 -0.09312939 -0.10674501 -0.46404728 0.080289036
0.16260293 0.050276775 0.28178254 0.8321657 -0.47402737 0.367336 -0.17128143 0.24731353
0.43203944 0.32590038 -0.096008725 0.4173881 -0.32053092 0.46908772 0.40339845 -0.1399179
0.01661915 -0.22845359 -0.15378341 -0.23905218 -0.012044198 -0.09947671 -0.23769665 0.1967227

FC.2.weight f4 [128, 128]
00000000: 59e2 a8bd 8b9c 3bbe ba96 f03d 597f f63c
00000010: 18a7 7d3c 4fb0 51be 5e51 ee3d 9bcb 3fbe
00000020: e820 00be af50 ab3c ba88 013e 69f0 51be
00000030: 691e 15be 9019 cc3d 7172 58be 7a66 33be
00000040: 262b 13bd d628 f33c add5 c2bd 4d9c 633c
00000050: bb3d 363e 4c64 22be 085f bd3c a50f 45be
00000060: 437a d13d b1e2 d6bd a6b7 e0bc b7c9 c73d
00000070: c7de bfbd 1b17 a4bd d212 a1bd ecea 1f3d
00000080: 6543 1f3e bec6 4abe 4597 8c3d feac 923d
00000090: 5016 d33d bd31 00be 75bf 063d d06d 47be
000000a0: b91d efbd 0a80 df3d b37b 66be 3320 5dbe
000000b0: 0ab1 413e ece2 61bd 1597 0fbd 7a1d 0e3e
000000c0: 65aa 0b3e 9e4f 303e def8 153e 5aea 94bd
000000d0: da87 9dbd c074 093c 42ef cbbd 972a 083c
000000e0: 0c90 fa3d b0db 46be 6077 41be 06b7 c93d
000000f0: eed6 f73d 9dcb f53d 5666 fdbd b2ca 3d3d
00000100: 9989 403e 71ca 05be 9826 5bbb dc37 e33c
00000110: 849c 213e ee45 b1bd 1217 0ebe 845c 0f3d
00000120: e9b4 65be e0f5 053e f675 a13d 1101 0a3e
00000130: 54cb e3bd a96e 233e 300a 11be 8c54 ab3d
00000140: 931c 64be 78b3 2cbd 55ae efbd ee70 12bd
00000150: cf20 273e 09a4 47be 6829 043d d448 2a3d
00000160: c5a6 26be a540 c9bc b28f e33d 321f 36be
00000170: 7a38 b33d afb8 20be 9792 043b 4e97 13be
00000180: a627 55be dcf4 db3d 3920 82bd c441 0cbe
00000190: 1188 57be 3891 9bbd 643c 1dbe 81b7 8c3d
000001a0: 63ec 2fbe d577 74bc efbc 1ebd a1da 9c3d
000001b0: 31ec 3abe 63d5 0cbe bc7c 113e 1177 7bbe
000001c0: e243 2cbe 2340 3abe 3aad 723d e036 093e
000001d0: 705d 253e 12c7 9f3d 9e66 433e cd1a 1ebe
000001e0: 04a2 6c3d 0761 f1bd c466 1bbe 3dac 15be
000001f0: 5554 843d 0ce5 243e 4b37 153e b8db 48bd
00000200: 8434 21bd 9bb1 8a3c e8c7 03be fd06 793c
00000210: 74a9 77be 09fd 4abd 46c1 40bc c0aa f5bd
00000220: 03b3 c03d ac10 55be e13f a93d c34b 943e
00000230: 306e 2fbe 6f99 efbd 40be b7bd aa3a 4dbe
00000240: 3faa 8d3d 4a6a d63d 56ea e23d 8dd2 09be
00000250: dc58 023e c2ce 533e a47e ae3d 3bc1 44be
00000260: be6a 8dbe c1c7 28bd 02a7 883c 15ec 27be
00000270: 57fe b83d 0821 103d ebe6 c8bd 9d0a 9dbe
00000280: 49c5 4f3e cd64 94bd f6de 083e 2c48 4cbe
00000290: 83ba 983d 35eb ac3e ef27 c53d 8a03 cebc
000002a0: 6f4a 24be 69c6 07bf e852 b43d 3de0 c43d
000002b0: a920 eabd 4e4f fe3d 151e 733e f9e8 05bc
000002c0: e1c0 aa3c 0c2d 8a3e 0e18 963e 591d 0f3d
000002d0: 9e1e f4bd 1ceb 343d f3b3 0ebe 4238 8b3d
000002e0: 67d8 5c3e ec61 fd3d 84e1 b53e ba18 e6bc
000002f0: c8e4 103e f601 cfbe 0d79 15bd e4bf aabd
00000300: 18aa a7bd 9e3d 27be a835 8ebe 0bcc 973c
00000310: b4b7 cb3d eeeb 833e cdf2 1c3e 5fbb 86bd
00000320: 186a afbc b1aa 5a3e accc 3dbd 0051 67bd
00000330: a0c6 7e3e 7572 35be 6e32 37be 712c b83e
00000340: 4ddf da3e 7fe5 56be 109f ab3e 7872 09be
00000350: 2a07 203e a848 d4bd 3374 b33e c491 cdbd
00000360: fc3e dabd 0382 a33e d619 d63d a1cb 923e
00000370: c7fc 82be 1441 43bd 160c e03d eaa0 a63d
00000380: 228c 943a 39ba 173d b0d2 3a3e 6025 c33c
00000390: c6da 633e 8775 efbc 33b9 233e 3493 313e
000003a0: 67dd 933e e672 353e adb0 de3d aecd 153e
000003b0: 8e24 a9be ada5 073e f83f 6ebe af57 193c
000003c0: 2588 8c3e c481 c93d 1994 abbe 5a75 323e
000003d0: 447d b33e 1f4e 043d 18c8 3b3e 4f95 2dbd
000003e0: f6bc f8bc a931 0abf ba4e 95bc b6bf 9b3e
000003f0: b59b eebd e1dd 463c 88fd bcbd 393e 25be
-0.082462974 -0.18321435 0.11747499 0.030090021 0.015481733 -0.20477413 0.11636613 -0.18730013
-0.12512553 0.020912496 0.12649813 -0.20501865 -0.14562382 0.09965813 -0.21137406 -0.1751956
-0.03592982 0.029682558 -0.09513412 0.0138922455 0.17796986 -0.15858573 0.023116603 -0.19244249
0.10228398 -0.10492457 -0.02743132 0.09755271 -0.09368663 -0.080122195 -0.07864918 0.0390424
0.15553053 -0.19802377 0.0686479 0.07161902 0.1030699 -0.12518974 0.03289743 -0.19475484
-0.11675591 0.109130934 -0.22508125 -0.21594314 0.18915191 -0.05514805 -0.035056192 0.13878432
0.13639219 0.17217872 0.14645717 -0.072712615 -0.07691927 0.008389652 -0.09957744 0.008310935
0.12234506 -0.19419742 -0.18893194 0.09849362 0.121015415 0.12001727 -0.12373035 0.046335883
0.1880249 -0.13065507 -0.0033439752 0.027736597 0.15782362 -0.08655916 -0.13875988 0.03500034
-0.22432293 0.13082075 0.078838274 0.1347697 -0.11122766 0.15960182 -0.14164042 0.083657354
-0.22276525 -0.042163342 -0.11703173 -0.03575223 0.16321109 -0.19496168 0.03226605 0.04157336
-0.16274555 -0.024566958 0.11111392 -0.17785338 0.087510064 -0.15695451 0.0020228976 -0.14413187
-0.20815906 0.107400626 -0.06353802 -0.13696963 -0.21047999 -0.07596058 -0.15355068 0.06870938
-0.17180018 -0.014921148 -0.0387544 0.07658888 -0.18254162 -0.13753276 0.14207739 -0.24557139
-0.1682277 -0.18188529 0.059247233 0.1339984 0.16148925 0.078016415 0.19082114 -0.15439911
0.057771698 -0.117860846 -0.1517592 -0.14616485 0.064613976 0.16103 0.14571874 -0.049037665
-0.039356723 0.016930392 -0.12869227 0.01519942 -0.24185735 -0.04955772 -0.01176483 -0.119954586
0.09409144 -0.20807141 0.08264137 0.28964052 -0.17131877 -0.11699187 -0.08971834 -0.2004191
0.069172375 0.10469492 0.11079852 -0.13459225 0.1272921 0.2068434 0.085202485 -0.19214337
-0.276205 -0.041206125 0.016681198 -0.16398652 0.090328865 0.03518775 -0.09809669 -0.3067216
0.20290102 -0.07245789 0.13366303 -0.19949406 0.07457449 0.337732 0.09626757 -0.025148172
-0.16044019 -0.53037125 0.088048756 0.096130826 -0.11432011 0.1241747 0.23741944 -0.008173221
0.020843925 0.26987493 0.29315227 0.034940097 -0.11919902 0.04416953 -0.13935833 0.0679784
0.21566926 0.12372193 0.35523617 -0.028087962 0.14149773 -0.40431184 -0.036492396 -0.083373815
-0.0818674 -0.16332099 -0.2777531 0.018529912 0.09947148 0.25765938 0.15326996 -0.06578707
-0.021412894 0.21354176 -0.04633777 -0.056473732 0.24880457 -0.17719443 -0.17890331 0.35971406
0.4274849 -0.20985983 0.33519793 -0.13422573 0.15627733 -0.103654206 0.3504959 -0.10037568
-0.106565446 0.3193513 0.104541466 0.28670982 -0.2558348 -0.047669485 0.10939805 0.08136161
0.0011333267 0.03704283 0.18244433 0.023821533 0.22251424 -0.029230846 0.15988617 0.1734131
0.28879854 0.17719612 0.10873542 0.14629242 -0.33035702 0.13246794 -0.2326659 0.009359284
0.2744762 0.09839204 -0.33511427 0.17427579 0.35056508 0.032301065 0.18338048 -0.04237872
-0.030363541 -0.53982025 -0.018226016 0.304197 -0.116507925 0.012137861 -0.09228045 -0.16137017

FC.2.bias f4 [128]
00000000: 21ff 9cbd 6183 2cbc 8b30 003d a210 03bd
00000010: 0927 ddbd ebea f63d a39f e2bd d01a 453e
00000020: 5856 7fbd 2077 4d3d cacd ee3c e4c2 123e
00000030: 5508 433d 5b16 6abc 7594 7d3d b507 f53d
00000040: 24e6 15bc 4a3b 563e 7270 b2bd a8ba 123d
00000050: 14e0 41be a830 09be d2e6 2f3e e9de 56bd
00000060: ef5e 403e b645 9bbc 32c1 a83d 8baf 00bd
00000070: 41c2 b9bc aa1d ff3d 1988 c23c af42 5abe
00000080: 29f6 afbd 953e 33bb c360 36bd 02fd 01be
00000090: f3ca 313e d715 9f3d 85b8 a4bd 25f3 fabd
000000a0: cdf5 92bc 1d1a 1cbd 5b4d d1bd 2c6a b83d
000000b0: 1c7c 853d 8165 28bd 4222 a13d 28b8 c9bc
000000c0: 1264 a43d 91b1 cabc 368a 8dbd 7770 1e3e
000000d0: 3cc6 533e 13c9 c43d bc95 8ebe 379c 37bd
000000e0: 943e 893c 9d5b f8bd 3d01 1c3c 6043 cfbc
000000f0: 412f 523d d26e 4abd 9863 ab3d c9b0 b6bc
00000100: b61d 56bd ecc5 113c 711f 31bb b49a 52bd
00000110: 0518 6a3d 9a95 983d c01a aa3d 124e acbe
00000120: a230 003e cd2d dc3c fa70 bebc 138a c2bd
00000130: 39e7 2b3e 718f d0bd d0cc 513d 99df 3dbe
00000140: a435 913d bc62 19bd d8d4 aebd 8501 a3bd
00000150: 4a72 ab3d f167 50bd 8e8f 01be 53f1 423d
00000160: d194 9c3c 1d11 1cbe f86e 133d eed6 c6bc
00000170: 1b1f 88bc 953b 5e3e 4f11 d33c a825 b73d
00000180: 2eaa cabd 36da 68bc dd12 c73c e63a 80bc
00000190: 8940 2f3d ca42 103d 57ed a8bd f4f7 0c3e
000001a0: 86a2 90bb 1321 7b3d 36ca 3ebd ff13 bdbc
000001b0: ec69 85bd cdf2 dfbc 702b bb3c 332f 99bd
000001c0: 991d 2d3e 795a 4fbe ff65 5abe e6e9 e6bc
000001d0: 0055 1e3e 5935 97bd 233f 62bc fb36 18bd
000001e0: a098 ec3c 54cf 443d bd54 72bd f46a d1bc
000001f0: 1fde 3338 01fd af3c 3068 4abe d9ba d0bd
-0.076658495 -0.01052937 0.031296294 -0.031998284 -0.10798461 0.12056526 -0.110656045 0.1924851
-0.062338203 0.050162435 0.029150862 0.14332157 0.047615368 -0.0142875565 0.061909158 0.119643606
-0.009149108 0.20921054 -0.087128535 0.03582254 -0.18933135 -0.13397467 0.17177895 -0.052458677
0.18786214 -0.01895414 0.08239974 -0.03141741 -0.022675635 0.1245683 0.023746537 -0.213145
-0.08591873 -0.0027350534 -0.044525873 -0.12694171 0.17362575 0.077678375 -0.08043007 -0.122534074
-0.017939473 -0.03811084 -0.102198325 0.09004626 0.065178126 -0.041112427 0.07867862 -0.024623945
0.080268994 -0.024742873 -0.06911127 0.1547259 0.20681089 0.09608664 -0.27848613 -0.044826712
0.016753472 -0.12126849 0.00952178 -0.025300682 0.051314596 -0.049422093 0.083686054 -0.022301095
-0.05227443 0.008897286 -0.0027026797 -0.051417068 0.057151813 0.07450409 0.083058834 -0.33653313
0.12518552 0.026877308 -0.02324723 -0.09498992 0.16787423 -0.10183609 0.051220715 -0.18542327
0.07090309 -0.037447676 -0.085366905 -0.07959274 0.08371408 -0.050880376 -0.12652418 0.047593426
0.01911393 -0.15240903 0.0359945 -0.024272408 -0.016616395 0.21702416 0.02576509 0.08942729
-0.098957404 -0.014212182 0.024300987 -0.015653085 0.042786155 0.035219945 -0.08248394 0.13766462
-0.0044139056 0.06131084 -0.046579562 -0.023080824 -0.065143436 -0.027337456 0.022847861 -0.07479706
0.16905822 -0.20249356 -0.21327971 -0.028187703 0.15462112 -0.07383222 -0.013808998 -0.03716181
0.028881371 0.048049286 -0.059162844 -0.025563695 4.2883792e-05 0.021482946 -0.19766307 -0.10191888

FC.4.weight f4 [4, 128]
00000000: 1a5c 2cbe 9f57 243e 2b61 d9bc 7241 5bbe
00000010: 2a8c bbbb 8765 a43e 6190 ccbd 005a f33e
00000020: 1e04 5d3e 121d 67be 60a9 863d 12a6 d0bd
00000030: 3bb9 163f 5dae 01bf d792 b2be 9f73 6e3e
00000040: 0694 cdbe 5d2c adbe ceee 293e 7a42 9abd
00000050: 1977 88be f7c2 1dbe 5a31 31be 2a20 64be
00000060: f495 1cbe 2290 1d3f 4b25 a9bd e8cf 5dbc
00000070: ec6d 223e 0014 873e 70d7 25bd 81ba 573d
00000080: ff73 7c3e 3f92 ed3e fe5f 5d3d 0636 bebe
00000090: e88a 13be f3dd b2bd f484 c93e 0218 693e
000000a0: 00a0 0abf 16e3 bc3c c0f2 993e f0d3 273e
000000b0: c30e a33e ad5c b73d 0708 c9be b487 d4be
000000c0: 78bd 19bd 391d a13d cc29 86be 7509 a73d
000000d0: 95c3 afbe 8902 c4be 6297 6bbe 4f41 04bd
000000e0: 2582 2a3e 6b32 5f3e 0d8e 9abd b790 0dbb
000000f0: 22f3 dfbe 1afe a03d 165f 41be 9e8c a63e
00000100: 8a69 1b3e d1b9 b43e 7f2d 203e 272c b23e
00000110: 7d5d e03d d46b 173e b289 58bc d537 b33c
00000120: 6fb5 e2be 64cc 9f3d f564 28be 63a2 133e
00000130: c9b9 94be b073 aebe 14e4 ae3e 3f71 64be
00000140: 40a1 70be 9b32 81bd c2be ab3e 76d9 18bd
00000150: 2fda 84be 5868 9cbd dd08 bd3d a956 203e
00000160: 1643 b7bd 6e04 2c3e 2f23 45bc da12 b9be
00000170: 3490 8ebd 4056 b4bd acd4 0dbf 0e8b a9be
00000180: 7951 493e 0920 723e 06e7 cbbe ec50 713e
00000190: 1083 aa3d ec60 b93e cf21 5bbe 581a b0be
000001a0: 2021 43be a653 cdbe 0950 953e 9d3f 44be
000001b0: b2ad 14be e2c1 9cbe add0 89be add0 2e3e
000001c0: 383f afbd cd68 c8be 037f 6f3d 6640 87be
000001d0: a15c 543e f8ad 39be 4ef1 0cbf 6327 e7be
000001e0: 044e 58be 0a9f a2bc a121 cc3c 5817 7ebe
000001f0: 0d1f acbe e6c2 3e3e 6d28 dabe 2c34 bf3e
00000200: 93e2 023e 6d38 3f3e bfce c3bd 147e 16bd
00000210: 05e5 94bd e934 723e 80a7 1abe 4878 d63d
00000220: 1541 f6be ceeb 453e 11e1 523e a33c a93e
00000230: f7d8 923e 14bb 65be 1a24 a73b aee1 21be
00000240: 402a 85be ae34 3d3e 32dd 0ebe a5e9 4fbe
00000250: 16d7 2abf 3719 1cbf c9a6 7d3e 0fdc 0dbe
00000260: a673 8b3e be0b 0b3f ee1d 123e 6723 dfbe
00000270: 9199 b73e 0e00 9c3e 0c3a 32be ac1d 96bd
00000280: 7061 8cbd 7270 813e 62b8 8abe dab4 18be
00000290: fde3 6d3d ca95 503e 7c4c af3c f112 cf3e
000002a0: 8d8e 59be 1b1b 023e 11ef 24be efa5 83bd
000002b0: 243a 01be dbd4 13bf b5b4 8ebe dcbe cb3d
000002c0: 9cd6 d33c 084f 7c3e c447 a63b 1992 b53e
000002d0: 315b 413e edd1 53be 6c6b d8be 7124 64be
000002e0: 5a1e dcbe af00 523e 55a6 4fbe 1e9c 6d3d
000002f0: a1c3 79bd cef5 1d3e 9529 df3e dbe3 bebe
00000300: eb8e aebe cbec 1ebe c1bc 293e 1b8c b23e
00000310: 5249 6d3e 368b ef3e cbce 0a3e c7b7 40bf
00000320: aecb 4abe 4bad e2bd a023 af3b 495b 263e
00000330: b0c3 623f 63a3 573e 19b4 3fbe a2c9 443e
00000340: f576 22be fdef 01be 869f e13e 0151 803e
00000350: 45f7 833e b3c7 b13e 3bc8 cc3d 470e 843d
00000360: 7ca6 4e3d c568 f83e 7532 dbbd 0a00 df3c
00000370: 65d1 97be 1bb7 7f3e 44b0 c4bd ca9c 12be
00000380: 92f6 44be a225 e4be b3b1 2ebe 9255 8abe
00000390: bf5e e1bd 3bff 043e acb7 04bf bbc8 b3bd
000003a0: a19b dfbe a520 873e 741e bc3e 2971 1d3d
000003b0: 0300 08bd bd6a 3b3e 7b20 c9be bf2e d43c
000003c0: f76d 813e 4187 8fbe 8b97 18bf b298 b7be
000003d0: 1f15 ddbd 9f85 aa3d a7fa 66be 0317 313e
000003e0: 1bde d7be d0bb 6cbd ee96 ba3e 543b 11be
000003f0: 74d5 18be 0d89 393e f4c1 c7be fc78 ff3e
-0.16832009 0.1604905 -0.026535591 -0.21411684 -0.005723496 0.3210871 -0.099884756 0.47529602
0.21583602 -0.22569683 0.065752745 -0.101879254 0.5887639 -0.5065668 -0.34877655 0.23286293
-0.40151995 -0.3382291 0.16595003 -0.07532211 -0.26653364 -0.15406404 -0.17303982 -0.22277895
-0.15291578 0.61548054 -0.08259066 -0.013538338 0.15862244 0.26382446 -0.04048866 0.0526681
0.24653624 0.4640064 0.054046623 -0.37150592 -0.14408457 -0.0873374 0.39359248 0.22763065
-0.5415039 0.023057502 0.30068016 0.16389441 0.318472 0.089532234 -0.39263937 -0.41509783
-0.037534207 0.07866902 -0.26203763 0.08156101 -0.34328905 -0.38283184 -0.23006967 -0.032288846
0.16651209 0.21796577 -0.07546625 -0.002160115 -0.43740183 0.07860966 -0.18883929 0.32529157
0.15176979 0.35298017 0.15642355 0.3479931 0.109553315 0.14787227 -0.013216423 0.021877209
-0.44279048 0.07802656 -0.16444762 0.14417414 -0.29047993 -0.34072638 0.34158385 -0.22308825
-0.23499012 -0.0630848 0.33543974 -0.037316762 -0.2594771 -0.076370895 0.09230206 0.15658058
-0.089483425 0.16798565 -0.012032314 -0.36147195 -0.06961098 -0.088055134 -0.55402637 -0.33113903
0.19659986 0.23645033 -0.39824694 0.23566025 0.083257794 0.36206758 -0.21399616 -0.343951
-0.19055605 -0.4010288 0.29162624 -0.19164892 -0.14519385 -0.3061667 -0.2691702 0.17071791
-0.0855698 -0.39142457 0.058470737 -0.2641632 0.2073846 -0.1813277 -0.550557 -0.45147237
-0.2112351 -0.019851226 0.02491838 -0.24813592 -0.3361744 0.18629035 -0.42608967 0.3734449
0.12781744 0.18673868 -0.09560918 -0.03674133 -0.072702445 0.23652996 -0.15102959 0.104721606
-0.4809653 0.19328234 0.20593669 0.33054075 0.28681156 -0.22434646 0.005100739 -0.15808746
-0.26008797 0.18477127 -0.13951567 -0.20303972 -0.66734445 -0.60975975 0.24770655 -0.13853477
0.2723667 0.5431479 0.1426923 -0.43581697 0.3585935 0.30468792 -0.17404956 -0.07329878
-0.06854522 0.252811 -0.27093798 -0.1491274 0.058078755 0.2036964 0.021398775 0.4044414
-0.21245785 0.12705652 -0.16106822 -0.06428134 -0.12619835 -0.57746667 -0.27872244 0.09948513
0.02585917 0.24639523 0.005074473 0.35463026 0.18882443 -0.20685549 -0.42269456 -0.22279526
-0.42991906 0.20508073 -0.20278294 0.058010213 -0.060977582 0.15425798 0.43586412 -0.37283215
-0.34093413 -0.15520017 0.1657591 0.34872517 0.231725 0.46785897 0.13555448 -0.7528042
-0.1980426 -0.11068209 0.005344823 0.1624576 0.88579845 0.21058421 -0.18721046 0.19217542
-0.15865691 -0.12689205 0.4406702 0.250618 0.2577459 0.3472267 0.099991284 0.06448036
0.05045174 0.48517433 -0.10702983 0.027221698 -0.29651943 0.24972193 -0.096039325 -0.14317623
-0.19234684 -0.44559962 -0.17059974 -0.2701841 -0.110043995 0.12987988 -0.5184276 -0.08778521
-0.43673423 0.26392093 0.36741984 0.038437996 -0.033203136 0.18302436 -0.39282593 0.025901197
0.2527921 -0.28032878 -0.59606236 -0.35858685 -0.10795044 0.083262675 -0.22556554 0.17293935
-0.4216164 -0.0577963 0.36443275 -0.14182788 -0.14925176 0.18118687 -0.39015162 0.4989699

FC.4.bias f4 [4]
00000000: 0d07 833c bc5a 92bb ba65 953d b27f 6fbd
0.015994573 -0.004466383 0.072947934 -0.05847139
